EX_DEEP_LEARNING/Day04/all_model.pt (torch, 4188 bytes, 5 tensors)

weight f4 [16, 2]
00000000: 27cd 06bf 3155 23bf 684e 10bf f9d4 dbbe
00000010: 1390 233f 78f1 273f 0005 74bd dcd4 49be
00000020: 8082 773c a052 f9bd a2ec cfbe 111c 2dbf
00000030: 196e bebe 2cae 5a3e df49 2b3f ffae cabe
00000040: c672 f23e 1cd6 893e 9fc7 293f 84cf 2f3f
00000050: bc01 48bf a6d3 b4be bb87 74bf 7ae9 16bf
00000060: 2cfd 14bf e2fb 01bf 0d4d a5be 5da8 1dbf
00000070: 6010 543f 47f5 143f 8097 d1bc a0ea fbbc
-0.5265679 -0.63801867 -0.5636964 -0.42935923 0.63891715 0.6560283 -0.05957508 -0.19710106
0.015106797 -0.121739626 -0.40610224 -0.6762095 -0.37193373 0.21355504 0.66909593 -0.39586636
0.4735319 0.26921165 0.6632022 0.6867602 -0.78127646 -0.35317725 -0.9551961 -0.58950007
-0.5819881 -0.5077497 -0.32285348 -0.61585027 0.82837486 0.58186764 -0.025584936 -0.030751526

bias f4 [16]
00000000: 8672 d23e bc54 92bf b329 a3bd c21a 60be
00000010: 4c21 60be 3293 883e 6efc 1f3e 7ccf c3be
00000020: 9ed4 6dbf f1c1 19bf 6c1d 63bf 53f9 4c3d
00000030: d7ee 093f 927c 3fbf 4202 f03d df8a d4be
0.41103 -1.1432109 -0.07966938 -0.21885207 -0.21887702 0.266748 0.15623638 -0.38244236
-0.92902553 -0.60061556 -0.8871677 0.05004246 0.53880066 -0.74799454 0.11719181 -0.415122

weight f4 [4, 16]
00000000: 0c48 e83d d0c3 b63d 66b0 44be 00aa 543c
00000010: c097 d03d 8004 e8bc 9492 6dbe b895 a9bd
00000020: 809d 5f3c 5a7f 60be 00e6 c23c 80b6 043c
00000030: 6815 7e3d 94f5 64be 8849 d53d 56cf 203e
00000040: 84a1 b93d 36b1 263f 3586 ae3e 6094 0cbc
00000050: 9ce8 abbd 0e01 56be 594b bbbe 5ed5 263e
00000060: b4e9 9f3e c96a fd3e d27e d93e 0354 c13e
00000070: 8c54 3ebe c031 eb3e c851 e03e 20f9 a83c
00000080: 4098 49bc 6014 02be 0008 72bb e459 a1bd
00000090: f8b1 0d3e cee3 15be 70ce b83c 28b0 213d
000000a0: 0a21 7dbe 30e7 14bd 4ac4 0d3e b861 823d
000000b0: c20a 6e3e 8086 fdbd 7016 b83c 32d1 45be
000000c0: 5067 5abd 0a85 0a3f c38f d23e 0089 073b
000000d0: 1800 27be 12a7 493e 18df c6bc 9e49 4b3e
000000e0: 4a85 b03e af97 0b3f 3540 1e3f 1466 2e3f
000000f0: 5e66 103e 6c8f f03e 0b0a 213f d80f 493d
0.11341867 0.08924067 -0.19207916 0.012979984 0.10185194 -0.028322458 -0.23200446 -0.0828051
0.013648391 -0.21923581 0.023791313 0.008100152 0.062032133 -0.22359306 0.104144156 0.15704092
0.0906401 0.6511415 0.34086767 -0.008580297 -0.08393976 -0.2089884 -0.36580923 0.1629233
0.3123299 0.49495533 0.4247957 0.37759408 -0.1858694 0.45936394 0.43812394 0.020626605
-0.012304366 -0.12703085 -0.0036931038 -0.078784734 0.13837421 -0.14637682 0.022559375 0.039474636
-0.24719635 -0.03635329 0.1384441 0.063662946 0.23246291 -0.123791695 0.022471637 -0.19318083
-0.053321183 0.5410925 0.41125306 0.0020681024 -0.1630863 0.19692639 -0.024276301 0.19852301
0.3447669 0.54528326 0.6181672 0.6812451 0.1410155 0.46984422 0.6290595 0.049087375

bias f4 [4]
00000000: 80a6 43bc 4bdb 013e d0b2 4ebe b803 013e
-0.011941552 0.1268131 -0.20185399 0.12599075

weight f4 [1, 4]
00000000: de4b eebe ca09 c33e 9c99 7f3e 583a 023f
-0.46542257 0.38093406 0.24960941 0.50870275
