EX_DEEP_LEARNING/Day04/weights_1.pth (torch, 3100 bytes, 5 tensors)

fc1.weight f4 [16, 2]
00000000: 27cd 06bf 3155 23bf 5a4e 10bf dbd4 dbbe
00000010: 0a52 233f f93f 283f 0005 74bd dcd4 49be
00000020: 8082 773c a052 f9bd a2ec cfbe 111c 2dbf
00000030: f711 bebe 39f9 593e df49 2b3f ffae cabe
00000040: 11f8 f13e ce6c 8a3e 5a8e 293f da16 303f
00000050: ae01 48bf 88d3 b4be ad87 74bf 6ce9 16bf
00000060: 2cfd 14bf e2fb 01bf ef4c a5be 4fa8 1dbf
00000070: 20d7 533f 443c 153f 8097 d1bc a0ea fbbc
-0.5265679 -0.63801867 -0.56369555 -0.42935833 0.63797057 0.65722615 -0.05957508 -0.19710106
0.015106797 -0.121739626 -0.40610224 -0.6762095 -0.3712308 0.21286477 0.66909593 -0.39586636
0.47259572 0.27036136 0.66232836 0.6878487 -0.78127563 -0.35317636 -0.95519525 -0.58949924
-0.5819881 -0.5077497 -0.32285258 -0.61584944 0.8275013 0.58295083 -0.025584936 -0.030751526

fc1.bias f4 [16]
00000000: 8672 d23e b354 92bf 6efb 9cbd c21a 60be
00000010: 4c21 60be 3293 883e cc14 1e3e 7ccf c3be
00000020: 4515 6dbf e20c 19bf 5e1d 63bf 49fa 4c3d
00000030: d7ee 093f 847c 3fbf 99a6 f53d df8a d4be
0.41103 -1.1432098 -0.07665144 -0.21885207 -0.21887702 0.266748 0.15437621 -0.38244236
-0.9261058 -0.5978528 -0.88716686 0.050043378 0.53880066 -0.7479937 0.119946666 -0.415122

fc2.weight f4 [4, 16]
00000000: 0c48 e83d d0c3 b63d 66b0 44be 00aa 543c
00000010: c097 d03d 8004 e8bc 9492 6dbe b895 a9bd
00000020: 809d 5f3c 5a7f 60be 00e6 c23c 80b6 043c
00000030: 6815 7e3d 94f5 64be 8849 d53d 56cf 203e
00000040: 84a1 b93d 28b1 263f 3db2 ae3e 6094 0cbc
00000050: 9ce8 abbd 0e01 56be 939f babe 5ed5 263e
00000060: 7dc8 9f3e 848c fd3e b47e d93e e553 c13e
00000070: 8c54 3ebe a231 eb3e ac7b e03e 20f9 a83c
00000080: 4098 49bc 6014 02be 0008 72bb e459 a1bd
00000090: f8b1 0d3e cee3 15be 70ce b83c 28b0 213d
000000a0: 0a21 7dbe 30e7 14bd 4ac4 0d3e b861 823d
000000b0: c20a 6e3e 8086 fdbd 7016 b83c 32d1 45be
000000c0: 5067 5abd fc84 0a3f 67b9 d23e 0089 073b
000000d0: 1800 27be 12a7 493e 08cf bbbc 9e49 4b3e
000000e0: b164 b03e 8ea7 0b3f 2740 1e3f 0666 2e3f
000000f0: 5e66 103e 4e8f f03e f31d 213f d80f 493d
0.11341867 0.08924067 -0.19207916 0.012979984 0.10185194 -0.028322458 -0.23200446 -0.0828051
0.013648391 -0.21923581 0.023791313 0.008100152 0.062032133 -0.22359306 0.104144156 0.15704092
0.0906401 0.6511407 0.3412036 -0.008580297 -0.08393976 -0.2089884 -0.3644987 0.1629233
0.31207648 0.49521267 0.4247948 0.3775932 -0.1858694 0.45936304 0.43844354 0.020626605
-0.012304366 -0.12703085 -0.0036931038 -0.078784734 0.13837421 -0.14637682 0.022559375 0.039474636
-0.24719635 -0.03635329 0.1384441 0.063662946 0.23246291 -0.123791695 0.022471637 -0.19318083
-0.053321183 0.5410917 0.41157076 0.0020681024 -0.1630863 0.19692639 -0.022925869 0.19852301
0.3445182 0.54552543 0.6181664 0.68124425 0.1410155 0.46984333 0.62936324 0.049087375

fc2.bias f4 [4]
00000000: 80a6 43bc d224 043e d0b2 4ebe f335 033e
-0.011941552 0.12904671 -0.20185399 0.12813549

out.weight f4 [1, 4]
00000000: de4b eebe 0a22 c33e 9c99 7f3e 1e4d 023f
-0.46542257 0.38111907 0.24960941 0.5089892
