EX_DEEP_LEARNING/Day04/weights_2.pth (torch, 3100 bytes, 5 tensors)

fc1.weight f4 [16, 2]
000000 27 cd 06 bf 31 55 23 bf 60 4e 10 bf e8 d4 db be
       -0.5265679 -0.63801867 -0.5636959 -0.42935872
000010 9f 61 23 3f 2b 1b 28 3f 00 05 74 bd dc d4 49 be
       0.6382083 0.65666455 -0.05957508 -0.19710106
000020 80 82 77 3c a0 52 f9 bd a2 ec cf be 11 1c 2d bf
       0.015106797 -0.121739626 -0.40610224 -0.6762095
000030 d0 2a be be bc 4e 5a 3e df 49 2b 3f ff ae ca be
       -0.37142038 0.21319097 0.66909593 -0.39586636
000040 35 17 f2 3e 1d 26 8a 3e d3 9c 29 3f 63 f5 2f 3f
       0.4728333 0.26982203 0.6625492 0.68733805
000050 b4 01 48 bf 95 d3 b4 be b3 87 74 bf 72 e9 16 bf
       -0.781276 -0.35317674 -0.9551956 -0.5894996
000060 2c fd 14 bf e2 fb 01 bf fc 4c a5 be 55 a8 1d bf
       -0.5819881 -0.5077497 -0.32285297 -0.6158498
000070 9f e5 53 3f f5 1a 15 3f 80 97 d1 bc a0 ea fb bc
       0.8277225 0.5824426 -0.025584936 -0.030751526

fc1.bias f4 [16]
000000 86 72 d2 3e b6 54 92 bf 7f 84 9f bd c2 1a 60 be
       0.41103 -1.1432102 -0.077889435 -0.21885207
000010 4c 21 60 be 32 93 88 3e b8 db 1e 3e 7c cf c3 be
       -0.21887702 0.266748 0.15513504 -0.38244236
000020 b2 63 6d bf 23 57 19 bf 64 1d 63 bf dd f9 4c 3d
       -0.9273025 -0.59898585 -0.8871672 0.050042976
000030 d7 ee 09 3f 8a 7c 3f bf 42 56 f3 3d df 8a d4 be
       0.53880066 -0.74799407 0.11881687 -0.415122

fc2.weight f4 [4, 16]
000000 0c 48 e8 3d d0 c3 b6 3d 66 b0 44 be 00 aa 54 3c
       0.11341867 0.08924067 -0.19207916 0.012979984
000010 c0 97 d0 3d 80 04 e8 bc 94 92 6d be b8 95 a9 bd
       0.10185194 -0.028322458 -0.23200446 -0.0828051
000020 80 9d 5f 3c 5a 7f 60 be 00 e6 c2 3c 80 b6 04 3c
       0.013648391 -0.21923581 0.023791313 0.008100152
000030 68 15 7e 3d 94 f5 64 be 88 49 d5 3d 56 cf 20 3e
       0.062032133 -0.22359306 0.104144156 0.15704092
000040 84 a1 b9 3d 2e b1 26 3f fb 97 ae 3e 60 94 0c bc
       0.0906401 0.65114105 0.34100327 -0.008580297
000050 9c e8 ab bd 0e 01 56 be f3 e0 ba be 5e d5 26 3e
       -0.08393976 -0.2089884 -0.36499748 0.1629233
000060 4e cd 9f 3e e9 73 fd 3e c1 7e d9 3e f2 53 c1 3e
       0.31211323 0.49502495 0.42479518 0.37759358
000070 8c 54 3e be af 31 eb 3e c2 5f e0 3e 20 f9 a8 3c
       -0.1858694 0.45936343 0.43823057 0.020626605
000080 40 98 49 bc 60 14 02 be 00 08 72 bb e4 59 a1 bd
       -0.012304366 -0.12703085 -0.0036931038 -0.078784734
000090 f8 b1 0d 3e ce e3 15 be 70 ce b8 3c 28 b0 21 3d
       0.13837421 -0.14637682 0.022559375 0.039474636
0000a0 0a 21 7d be 30 e7 14 bd 4a c4 0d 3e b8 61 82 3d
       -0.24719635 -0.03635329 0.1384441 0.063662946
0000b0 c2 0a 6e 3e 80 86 fd bd 70 16 b8 3c 32 d1 45 be
       0.23246291 -0.123791695 0.022471637 -0.19318083
0000c0 50 67 5a bd 02 85 0a 3f 51 a0 d2 3e 00 89 07 3b
       -0.053321183 0.54109204 0.41137937 0.0020681024
0000d0 18 00 27 be 12 a7 49 3e a6 04 c0 bc 9e 49 4b 3e
       -0.1630863 0.19692639 -0.023439717 0.19852301
0000e0 b7 69 b0 3e b3 9b 0b 3f 2d 40 1e 3f 0c 66 2e 3f
       0.34455654 0.54534453 0.61816674 0.6812446
0000f0 5e 66 10 3e 5b 8f f0 3e 75 10 21 3f d8 0f 49 3d
       0.1410155 0.46984372 0.62915736 0.049087375

fc2.bias f4 [4]
000000 80 a6 43 bc ef 34 03 3e d0 b2 4e be a4 4f 02 3e
       -0.011941552 0.12813161 -0.20185399 0.12725693

out.weight f4 [1, 4]
000000 de 4b ee be d3 0c c3 3e 9c 99 7f 3e 58 3f 02 3f
       -0.46542257 0.38095722 0.24960941 0.50877905
