EX_DEEP_LEARNING/Day04/weights_0.pth (torch, 3100 bytes, 5 tensors)

fc1.weight f4 [16, 2]
000000 27 cd 06 bf 31 55 23 bf 51 4e 10 bf c9 d4 db be
       -0.5265679 -0.63801867 -0.563695 -0.4293578
000010 76 37 23 3f 12 5b 28 3f 00 05 74 bd dc d4 49 be
       0.637565 0.6576396 -0.05957508 -0.19710106
000020 80 82 77 3c a0 52 f9 bd a2 ec cf be 11 1c 2d bf
       0.015106797 -0.121739626 -0.40610224 -0.6762095
000030 8e e9 bd be 59 c0 59 3e df 49 2b 3f ff ae ca be
       -0.3709225 0.21264781 0.66909593 -0.39586636
000040 54 c3 f1 3e 41 a0 8a 3e c3 75 29 3f 5a 2f 30 3f
       0.47219336 0.2707539 0.66195315 0.6882225
000050 a5 01 48 bf 76 d3 b4 be a4 87 74 bf 63 e9 16 bf
       -0.7812751 -0.35317582 -0.9551947 -0.5894987
000060 2c fd 14 bf e2 fb 01 bf dd 4c a5 be 46 a8 1d bf
       -0.5819881 -0.5077497 -0.32285205 -0.6158489
000070 83 be 53 3f 9d 54 15 3f 80 97 d1 bc a0 ea fb bc
       0.8271257 0.58332235 -0.025584936 -0.030751526

fc1.bias f4 [16]
000000 86 72 d2 3e ae 54 92 bf d0 b5 9a bd c2 1a 60 be
       0.41103 -1.1432092 -0.07554209 -0.21885207
000010 4c 21 60 be 32 93 88 3e 37 68 1d 3e 7c cf c3 be
       -0.21887702 0.266748 0.15371786 -0.38244236
000020 49 cf 6c bf 78 ca 18 bf 55 1d 63 bf db fa 4c 3d
       -0.9250379 -0.5968394 -0.8871663 0.050043922
000030 d7 ee 09 3f 7b 7c 3f bf 47 b8 f7 3d df 8a d4 be
       0.53880066 -0.7479932 0.12095695 -0.415122

fc2.weight f4 [4, 16]
000000 0c 48 e8 3d d0 c3 b6 3d 66 b0 44 be 00 aa 54 3c
       0.11341867 0.08924067 -0.19207916 0.012979984
000010 c0 97 d0 3d 80 04 e8 bc 94 92 6d be b8 95 a9 bd
       0.10185194 -0.028322458 -0.23200446 -0.0828051
000020 80 9d 5f 3c 5a 7f 60 be 00 e6 c2 3c 80 b6 04 3c
       0.013648391 -0.21923581 0.023791313 0.008100152
000030 68 15 7e 3d 94 f5 64 be 88 49 d5 3d 56 cf 20 3e
       0.062032133 -0.22359306 0.104144156 0.15704092
000040 84 a1 b9 3d 1f b1 26 3f 9e bf ae 3e 60 94 0c bc
       0.0906401 0.65114015 0.34130567 -0.008580297
000050 9c e8 ab bd 0e 01 56 be e9 63 ba be 5e d5 26 3e
       -0.08393976 -0.2089884 -0.3640435 0.1629233
000060 fd ba 9f 3e 16 95 fd 3e a2 7e d9 3e d3 53 c1 3e
       0.31197348 0.49527806 0.42479426 0.37759265
000070 8c 54 3e be 90 31 eb 3e 1f 87 e0 3e 20 f9 a8 3c
       -0.1858694 0.4593625 0.4385309 0.020626605
000080 40 98 49 bc 60 14 02 be 00 08 72 bb e4 59 a1 bd
       -0.012304366 -0.12703085 -0.0036931038 -0.078784734
000090 f8 b1 0d 3e ce e3 15 be 70 ce b8 3c 28 b0 21 3d
       0.13837421 -0.14637682 0.022559375 0.039474636
0000a0 0a 21 7d be 30 e7 14 bd 4a c4 0d 3e b8 61 82 3d
       -0.24719635 -0.03635329 0.1384441 0.063662946
0000b0 c2 0a 6e 3e 80 86 fd bd 70 16 b8 3c 32 d1 45 be
       0.23246291 -0.123791695 0.022471637 -0.19318083
0000c0 50 67 5a bd f3 84 0a 3f b0 c5 d2 3e 00 89 07 3b
       -0.053321183 0.54109114 0.4116645 0.0020681024
0000d0 18 00 27 be 12 a7 49 3e 9c f8 b7 bc 9e 49 4b 3e
       -0.1630863 0.19692639 -0.022457413 0.19852301
0000e0 4a 57 b0 3e 50 ab 0b 3f 1e 40 1e 3f fd 65 2e 3f
       0.34441596 0.5455828 0.61816585 0.6812437
0000f0 5e 66 10 3e 3c 8f f0 3e 21 23 21 3f d8 0f 49 3d
       0.1410155 0.4698428 0.6294423 0.049087375

fc2.bias f4 [4]
000000 80 a6 43 bc d2 f8 04 3e d0 b2 4e be eb 00 04 3e
       -0.011941552 0.12985542 -0.20185399 0.12890975

out.weight f4 [1, 4]
000000 de 4b ee be 5b 27 c3 3e 9c 99 7f 3e 9f 51 02 3f
       -0.46542257 0.38115963 0.24960941 0.50905794
