EX_DEEP_LEARNING/Day04/weights_9.pth (torch, 3100 bytes, 5 tensors)

fc1.weight f4 [16, 2]
000000 27 cd 06 bf 31 55 23 bf 2a 04 0b bf 85 40 d1 be
       -0.5265679 -0.63801867 -0.5430323 -0.40869537
000010 0e 89 f6 3e d9 d7 33 3f 00 05 74 bd dc d4 49 be
       0.4815144 0.7025123 -0.05957508 -0.19710106
000020 80 82 77 3c a0 52 f9 bd a2 ec cf be 11 1c 2d bf
       0.015106797 -0.121739626 -0.40610224 -0.6762095
000030 b4 49 be be 69 75 25 3e df 49 2b 3f ff ae ca be
       -0.37165606 0.1615807 0.66909593 -0.39586636
000040 49 83 a3 3e af cb 9d 3e 4f 33 03 3f 6f 13 38 3f
       0.319361 0.3081946 0.51250166 0.71904653
000050 7e b7 42 bf 32 3f aa be 7d 3d 6f bf 3c 9f 11 bf
       -0.76061237 -0.3325134 -0.934532 -0.568836
000060 2c fd 14 bf e2 fb 01 bf 99 b8 9a be 1f 5e 18 bf
       -0.5819881 -0.5077497 -0.30218962 -0.5951862
000070 17 db 2c 3f 90 9d 1c 3f 80 97 d1 bc a0 ea fb bc
       0.67521805 0.6117792 -0.025584936 -0.030751526

fc1.bias f4 [16]
000000 86 72 d2 3e 9f af 8f bf d4 cc 0f 3e c2 1a 60 be
       0.41103 -1.122547 0.1404298 -0.21885207
000010 4c 21 60 be 32 93 88 3e 03 0a 78 3d 7c cf c3 be
       -0.21887702 0.266748 0.060556423 -0.38244236
000020 a8 b7 39 bf 19 bb d2 be 2e d3 5d bf 84 ce 90 3d
       -0.7254586 -0.4115837 -0.8665036 0.0707064
000030 d7 ee 09 3f 54 32 3a bf 84 bb 9b 3e df 8a d4 be
       0.53880066 -0.72733045 0.304165 -0.415122

fc2.weight f4 [4, 16]
000000 0c 48 e8 3d d0 c3 b6 3d 66 b0 44 be 00 aa 54 3c
       0.11341867 0.08924067 -0.19207916 0.012979984
000010 c0 97 d0 3d 80 04 e8 bc 94 92 6d be b8 95 a9 bd
       0.10185194 -0.028322458 -0.23200446 -0.0828051
000020 80 9d 5f 3c 5a 7f 60 be 00 e6 c2 3c 80 b6 04 3c
       0.013648391 -0.21923581 0.023791313 0.008100152
000030 68 15 7e 3d 94 f5 64 be 88 49 d5 3d 56 cf 20 3e
       0.062032133 -0.22359306 0.104144156 0.15704092
000040 84 a1 b9 3d f8 66 21 3f 46 b2 aa 3e 60 94 0c bc
       0.0906401 0.6304774 0.33339137 -0.008580297
000050 9c e8 ab bd 0e 01 56 be 67 a7 85 be 5e d5 26 3e
       -0.08393976 -0.2089884 -0.2610428 0.1629233
000060 fd 9e 96 3e 67 88 f1 3e 5e ea ce 3e 8f bf b6 3e
       0.29418173 0.4717438 0.40413183 0.35693023
000070 8c 54 3e be 4c 9d e0 3e 97 78 d5 3e 20 f9 a8 3c
       -0.1858694 0.43870008 0.41693565 0.020626605
000080 40 98 49 bc 60 14 02 be 00 08 72 bb e4 59 a1 bd
       -0.012304366 -0.12703085 -0.0036931038 -0.078784734
000090 f8 b1 0d 3e ce e3 15 be 70 ce b8 3c 28 b0 21 3d
       0.13837421 -0.14637682 0.022559375 0.039474636
0000a0 0a 21 7d be 30 e7 14 bd 4a c4 0d 3e b8 61 82 3d
       -0.24719635 -0.03635329 0.1384441 0.063662946
0000b0 c2 0a 6e 3e 80 86 fd bd 70 16 b8 3c 32 d1 45 be
       0.23246291 -0.123791695 0.022471637 -0.19318083
0000c0 50 67 5a bd cc 3a 05 3f ef 61 c9 3e 00 89 07 3b
       -0.053321183 0.5204284 0.3933253 0.0020681024
0000d0 18 00 27 be 12 a7 49 3e 81 fd a1 3d 9e 49 4b 3e
       -0.1630863 0.19692639 0.0790968 0.19852301
0000e0 e7 c3 a2 3e fe c0 02 3f f7 f5 18 3f d6 1b 29 3f
       0.31790087 0.5107573 0.5975031 0.660581
0000f0 5e 66 10 3e f8 fa e5 3e 86 af 18 3f d8 0f 49 3d
       0.1410155 0.44918036 0.5964283 0.049087375

fc2.bias f4 [4]
000000 80 a6 43 bc 5c 31 80 3e d0 b2 4e be d4 6c 6f 3e
       -0.011941552 0.25037658 -0.20185399 0.23381358

out.weight f4 [1, 4]
000000 de 4b ee be 30 9b b5 3e 9c 99 7f 3e 7d 21 f4 3e
       -0.46542257 0.3546996 0.24960941 0.476818
