EX_DEEP_LEARNING/WORK/work_0123/best_taxi_regressor.pth (torch, 44480 bytes, 5 tensors)

net.0.weight f4 [128, 13]
-0.0005842566 -0.025439011 0.21790347 -0.06201879 -0.17233087 0.06752595 0.26836768 -0.023495905
-0.5167946 -0.0041513215 0.0010347873 0.15233183 0.20052047 0.032133196 -0.007666035 -0.114565305
-0.26202962 0.26405084 0.3337326 0.021749057 -0.1008987 0.112973295 0.022021994 -0.014975114
-0.1215847 -0.11090463 -0.013873977 0.07359662 -0.013225975 0.15150428 0.38442382 -0.20025373
0.02041943 -0.5396408 0.07897346 -0.014848485 0.024833791 0.086491406 0.013201956 0.009545541
-0.027670708 -0.26138112 0.0088113565 0.2514274 0.032218914 -0.033368673 0.07140757 0.015317789
-0.026591357 -0.0027897167 0.24823466 0.42357594 -0.0003951984 0.16722344 -0.055221874 -0.0049801823
0.060491055 0.013963168 0.2846553 0.0019561166 -0.63240284 0.0025953369 -0.0005832395 -0.13589592
0.07804475 -0.006182923 -0.07045893 -0.5488005 -0.13700163 0.48959276 0.16547896 -0.049853086
0.08405857 0.03527935 0.010000131 0.069030136 0.06892958 0.42083475 0.008821542 0.4028576
0.06544411 0.061810903 0.046487838 -0.03624934 0.008610684 0.013909916 0.057997048 -0.007378165
-0.0048038396 0.104059815 -0.0029770732 -0.005242261 0.47974676 -0.08083557 0.015092956 -0.0881085
0.059209436 0.056262944 0.019510122 0.04244919 0.0038671 -0.0009181842 0.09521937 0.0005888866
-0.008709448 0.21150647 0.019583158 -0.005016817 0.020901104 0.026056815 0.025490213 -0.005189272
-0.65733415 0.01249318 -0.0047385218 0.16204005 -0.015595461 0.00849274 0.32629305 0.24184237
-0.099622704 0.22838403 -0.15284252 0.0060131913 0.021485278 0.11581376 0.0053356364 -0.007053416
-0.2530814 -0.06313592 -0.020926224 -0.05767454 0.38781643 0.28032675 -0.44985995 -0.5176867
0.007688638 0.16863339 -0.0022945935 0.033630744 0.013155632 0.1567575 0.11350731 -0.055377457
0.36876458 0.21104474 0.05774084 -0.08597995 -0.081583306 0.068527535 -0.251534 -0.45197096
-0.012262322 0.012680105 0.15014142 -0.07292421 -0.002936824 0.06606935 -0.5142007 -0.11290297
0.27003196 0.115000844 -0.012097806 -0.034861818 0.024178497 -0.016968742 -0.0020452393 0.22851637
0.17843837 -0.0009543046 0.5081788 0.014673985 -0.003870871 0.08376483 -0.045001596 -0.0092789205
0.027850527 0.031859353 0.015784645 0.0011990208 0.10481644 -0.2977603 0.033666246 -0.022886613
0.09483492 -0.1632648 0.1417968 0.047061764 0.0139276255 -0.07853673 0.037848543 0.0037248186
0.0026620787 0.070824236 0.60070544 0.025115198 -0.073256336 -0.019185062 0.018601224 0.032786362
-0.036647696 0.2648913 0.60765177 -0.05060016 -0.025003953 0.0031884948 -0.25926155 0.08163148
-0.012260772 0.26621452 -0.453342 0.18159474 -0.35209563 0.20543145 -0.014319944 -0.017674312
0.049239192 -0.0020471714 0.05682649 0.066063404 0.32478297 -0.0068284348 0.11556876 0.1084585
0.019433057 -0.1493542 0.13387676 0.09890614 -0.03927503 -0.59516406 0.011967405 -0.0023686623
0.055407703 0.011701432 0.12155385 -0.3201395 -0.1758668 -0.049510032 0.1675836 -0.0025765644
0.22227189 0.29719833 0.1682268 0.18007565 -0.05823355 -0.010585278 0.0643186 -0.008280258
-0.032420438 -0.16407037 -0.029308584 0.09099718 0.106901474 0.19328402 0.016606867 0.007046515
00000000: cc28 19ba 7965 d0bc 1622 5f3e 6a07 7ebd
00000010: 8177 30be 0c4b 8a3d 7d67 893e 7c7a c0bc
00000020: a74c 04bf cf07 88bb b3a1 873a e0fc 1b3e
00000030: 3d55 4d3e 199e 033d 5d33 fbbb 37a1 eabd
00000040: bf28 86be ac31 873e 00df aa3e 142b b23c
00000050: faa3 cebd 8b5e e73d 7867 b43c 2e5a 75bc
00000060: 6601 f9bd f721 e3bd ad4f 63bc d3b9 963d
00000070: c3b1 58bc f023 1b3e 33d3 c43e 500f 4dbe
00000080: a646 a73c e625 0abf d6bc a13d 0f47 73bc
00000090: 3c70 cb3c 6822 b13d 044d 583c e764 1c3c
000000a0: aead e2bc bfd3 85be 825d 103c 18bb 803e
000000b0: fbf7 033d 97ad 08bd 223e 923d 77f7 7a3c
000000c0: 1ed6 d9bc aed3 36bb 3a31 7e3e f2de d83e
000000d0: a232 cfb9 9f3c 2b3e 5530 62bd cc30 a3bb
000000e0: 78c5 773d c5c5 643c 57be 913e 3132 003b
000000f0: 27e5 21bf 8716 2a3b 8ae4 18ba 4d28 0bbe
00000100: edd5 9f3d 1e9a cabb c64c 90bd 317e 0cbf
00000110: 284a 0cbe e7ab fa3e 5173 293e c032 4cbd
00000120: e626 ac3d 1481 103d 97d7 233c ac5f 8d3d
00000130: f42a 8d3d a777 d73e 3b88 103c 5a43 ce3e
00000140: 9007 863d 6e2d 7d3d 086a 3e3d 307a 14bd
00000150: d413 0d3c 6be6 633c 508e 6d3d 89c4 f1bb
00000160: 8769 9dbb 501d d53d 001b 43bb 46c7 abbb
00000170: 5ea1 f53e 1f8d a5bd 7248 773c 3b72 b4bd
00000180: 9885 723d f973 663d b1d3 9f3c 34df 2d3d
00000190: 2c6f 7d3b 4cb2 70ba 6002 c33d 835f 1a3a
000001a0: 13b2 0ebc 2795 583e dc6c a03c 1c64 a4bb
000001b0: cb38 ab3c 1a75 d53c dad0 d03c c50a aabb
000001c0: 0d47 28bf 32b0 4c3c 9a45 9bbb d4ed 253e
000001d0: 1b84 7fbc 2225 0b3c e20f a73e 87a5 773e
000001e0: fd06 ccbd 81dd 693e c082 1cbe 4e0a c53b
000001f0: e501 b03c c42f ed3d 90d6 ae3b 5820 e7bb
00000200: e393 81be 684d 81bd 796d abbc 233c 6cbd
00000210: e08f c63e fd86 8f3e 0b54 e6be 1e87 04bf
00000220: f8f0 fb3b 3bae 2c3e e460 16bb 64c0 093d
00000230: b88a 573c 0a85 203e 8576 e83d 79d3 62bd
00000240: b6ce bc3e 1d1c 583e a981 6c3d 4216 b0bd
00000250: 2615 a7bd 2a58 8c3d 10c9 80be bd68 e7be
00000260: e8e7 48bc 37c0 4f3c acbe 193e 4a59 95bd
00000270: bb77 40bb 5e4f 873d a8a2 03bf ac39 e7bd
00000280: a141 8a3e 9085 eb3d e035 46bc 44cb 0ebd
00000290: fc11 c63c 0802 8bbc 6c09 06bb 3200 6a3e
000002a0: 8cb8 363e 4c2a 7aba 0118 023f 276b 703c
000002b0: 70ae 7dbb e58c ab3d 9853 38bd 9d06 18bc
000002c0: ca26 e43c f47e 023d cd4e 813c 7628 9d3a
000002d0: 00aa d63d 0a74 98be 9ee5 093d b57c bbbc
000002e0: cf38 c23d e32e 27be 2e33 113e d6c3 403d
000002f0: b230 643c ddd7 a0bd 1307 1b3d 161c 743b
00000300: 4576 2e3b 4c0c 913d d5c7 193f 63be cd3c
00000310: 6b07 96bd fe29 9dbc 9861 983c fe4a 063d
00000320: e51b 16bd d59f 873e 118f 1b3f 1d42 4fbd
00000330: 17d5 ccbc 11f6 503b eebd 84be 682e a73d
00000340: 68e1 48bc 454d 883e 711c e8be f9f3 393e
00000350: e145 b4be 9f5c 523e 339e 6abc b8c9 90bc
00000360: 09af 493d d629 06bb e5c2 683d 404c 873d
00000370: f449 a63e 10c1 dfbb 50af ec3d 7d1f de3d
00000380: 1332 9f3c 4ff0 18be fd16 093e 4d8f ca3d
00000390: dbde 20bd ac5c 18bf ef12 443c 8f3b 1bbb
000003a0: 30f3 623d 5db7 3f3c 3af1 f83d 53e9 a3be
000003b0: 6d16 34be 08cb 4abd 099b 2b3e 94db 28bb
000003c0: 3e9b 633e 612a 983e a543 2c3e c065 383e
000003d0: 4e86 6ebd e06d 2dbc 78b9 833d eba9 07bc
000003e0: 4bcb 04bd 1002 28be 8e18 f0bc bb5c ba3d
000003f0: 29ef da3d 3fec 453e 200b 883c 74e6 e63b

net.0.bias f4 [128]
0.14709145 0.6277115 -0.02717128 0.21829759 0.15997812 0.05325989 0.18301454 0.32776827
0.18119535 0.13842806 0.14434898 0.3783902 0.32536483 0.057543542 0.14700273 -1.4414564
-0.13002464 0.34236827 -1.2260268 0.2967921 0.10323074 0.25808322 0.29407778 -0.09811837
-0.830289 0.46296602 -0.08482472 0.40160954 0.36636087 -0.0061961855 0.32405376 0.3634111
0.5041304 0.14709365 0.2612962 0.24318284 0.30680636 -0.03935544 -0.031918284 0.14118326
0.3992119 0.36472675 -0.25043565 -1.1282487 0.30386105 0.36007944 0.29677078 0.17032114
0.35452756 0.13392013 0.057802178 0.19319962 0.12413919 -0.09876713 0.45434752 0.23479387
0.10633849 0.23921795 0.4120174 0.17391647 0.32157475 0.117284305 0.52558655 0.40545297
-0.05342042 0.30727372 0.329577 0.124875605 0.5112116 -1.7720708 -1.5185659 -0.24527547
0.5413419 0.10983915 0.2679236 0.3082997 -0.71394116 0.24143173 0.32429034 0.33626294
-0.51642007 0.257059 -1.5245974 0.111503474 0.27191117 0.094615184 -1.1870607 0.21282338
0.21202783 0.3967128 0.39946133 -0.25325188 0.09695027 0.3171907 0.3658936 -1.0520332
-1.1989607 0.3134833 0.49922174 0.11214736 0.33540905 0.23333892 0.25452092 0.23032212
0.33561698 0.18429554 0.38323194 0.2641944 0.21324654 0.09228239 0.12049384 0.098607
-0.235687 0.31103206 0.30679145 0.43234202 0.21924801 0.61892444 -0.10771021 0.36887425
0.07492343 0.37604368 0.15449908 0.047152895 0.33181623 0.3490993 0.043589626 0.3286807
00000000: 249f 163e b3b1 203f 4e96 debc 6789 5f3e
00000010: 4ed1 233e 0b27 5a3d 2a68 3b3e 3ed1 a73e
00000020: 468b 393e 16c0 0d3e 38d0 133e 5cbc c13e
00000030: 3896 a63e c7b2 6b3d e287 163e a581 b8bf
00000040: 2e25 05be e54a af3e 72ee 9cbf 22f5 973e
00000050: a36a d33d 7c23 843e 5d91 963e 49f2 c8bd
00000060: d28d 54bf e209 ed3e 95b8 adbd c49f cd3e
00000070: a793 bb3e 5f09 cbbb 60ea a53e 0511 ba3e
00000080: b10e 013f b89f 163e 9ec8 853e ec04 793e
00000090: b915 9d3e 2b33 21bd bfbc 02bd 5892 103e
000000a0: 8165 cc3e 77bd ba3e 1a39 80be 746a 90bf
000000b0: ad93 9b3e 555c b83e 57f2 973e aa68 2e3e
000000c0: a384 b53e 5c22 093e fac1 6c3d 1fd6 453e
000000d0: b03c fe3d 6c46 cabd 3da0 e83e ce6d 703e
000000e0: ffc7 d93d 8df5 743e f2f3 d23e 2917 323e
000000f0: 72a5 a43e c132 f03d d78c 063f 8897 cf3e
00000100: 5fcf 5abd fb52 9d3e 51be a83e c8be ff3d
00000110: c3de 023f 37d3 e2bf 5e60 c2bf 7e29 7bbe
00000120: 6295 0a3f 59f3 e03d 482d 893e 75d9 9d3e
00000130: d9c4 36bf e139 773e 6209 a63e a82a ac3e
00000140: 1b34 04bf 3d9d 833e 0226 c3bf ef5b e43d
00000150: f137 8b3e 9bc5 c13d 9bf1 97bf 5fee 593e
00000160: d31d 593e f11d cb3e 3286 cc3e 3baa 81be
00000170: dd8d c63d d266 a23e 6856 bb3e 06a9 86bf
00000180: 8b77 99bf e280 a03e fe99 ff3e 84ad e53d
00000190: bcba ab3e 66f0 6e3e 9150 823e 90d9 6b3e
000001a0: fdd5 ab3e f8b7 3c3e fa36 c43e 7d44 873e
000001b0: 4d5d 5a3e 8dfe bc3d 79c5 f63d 78f2 c93d
000001c0: ef57 71be 983f 9f3e c513 9d3e ef5b dd3e
000001d0: 8d82 603e d571 1e3f 2c97 dcbd 16dd bc3e
000001e0: 7571 993d cc88 c03e 0235 1e3e 6523 413d
000001f0: d1e3 a93e 25bd b23e 098b 323d d648 a83e

net.3.weight f4 [64, 128]
-0.090541914 -0.11303279 -0.010038795 -0.032612275 -0.112353615 -0.082922004 -0.027487287 0.0038100092
0.03845334 0.022925006 -0.09140863 -0.040804274 -0.033926476 -0.087153755 0.05153621 -0.022494916
-0.013209535 -0.050197884 -0.0018006634 -0.023478145 -0.09252344 0.0030396746 -0.055315852 -0.05132529
-0.0047848476 -0.043892927 -0.09236098 -0.025758607 0.0065300963 -0.050905723 0.0026590256 -0.10063371
-0.0036892393 -0.014202002 -0.013599222 -0.05536295 -0.04977334 -0.03366916 0.012044717 -0.078463085
-0.024730187 -0.06734245 -0.08582476 -0.12726766 -0.046397492 -0.011507862 -0.0012137614 -0.019947143
-0.111660704 0.028551286 -0.09844252 -0.086574554 -0.0011628525 -0.070044935 0.027903533 -0.03469932
-0.012719861 -0.094723016 -0.009035501 0.0353155 0.04855857 -0.08968347 -0.028396204 0.061126582
-0.07394375 0.029774066 -0.086957276 -0.08540033 0.02364512 -0.09532632 0.028098395 -0.09817999
-0.06803872 -0.04786486 -0.032895226 -0.06824754 0.011927603 -0.022022583 -0.098327205 -0.0067096935
-0.09460906 0.015099002 0.0048445277 -0.017684048 -0.090908825 0.028200518 -0.005486644 -0.061667886
0.023464432 0.003322842 0.07687025 -0.03941291 0.056531955 -0.0760872 -0.0062906304 -0.050438624
-0.09478321 -0.08726868 0.05297906 -0.006601283 -0.033254284 -0.0025249082 0.048064068 0.024010029
0.006160448 0.039265603 -0.0200144 -0.07122512 -0.023107296 -0.07597571 -0.020503763 -0.05124788
-0.08389712 -0.013765634 -0.054313354 -0.08610161 -0.05338328 -0.01276724 -0.107314825 0.03877872
0.015799254 0.013152378 -0.015928147 0.025078809 -0.10119212 0.004558529 -0.008469996 -0.09585433
0.06670356 -0.05852744 0.10299476 0.057446063 0.010348141 0.04367355 0.021151273 0.13962594
0.077002235 0.06383135 0.01673678 0.034424968 0.10324248 0.1682112 0.11572271 -0.28988358
0.034701083 0.14040625 -0.30287653 0.0915472 -0.025470857 0.062234227 0.08825015 -0.025115475
0.3536383 0.08061356 0.059447527 0.07965384 0.05626204 0.03719195 0.083539724 0.10993491
0.03594844 0.093322635 -0.0101552745 0.019794848 0.12245657 -0.0156140365 -0.01891069 0.10906686
0.088441595 0.009253984 0.10099776 -0.30236074 0.1159193 0.12682004 0.044662766 -0.023485914
0.078609355 0.06534536 0.12640266 0.08948072 0.0182557 -0.010220597 0.02429374 0.06772349
0.074418195 -0.01654021 -0.009836107 0.11933217 0.038871355 0.005657202 -0.05880472 0.116881706
0.071490824 0.11187784 0.113737844 0.023464773 0.029563544 -0.39208704 -0.19235782 -0.23597884
0.03547033 0.051838875 -0.059882503 -0.24056622 -0.24623007 0.019566648 0.1079404 0.10174039
0.29923826 0.03420669 -0.17433843 0.09781804 0.091704704 0.06784268 -0.17731789 0.1108466
0.015407757 -0.007945439 0.03943479 0.09266518 -0.022516852 0.0395402 -0.039598018 -0.2688832
-0.5018202 -0.009938795 -0.36211964 -0.011341304 -0.0043480624 0.035738807 -0.002019347 -0.0054966207
0.032596115 0.089012824 -0.022421703 -0.025869908 -0.011909033 0.0035221828 -0.0052877176 0.07124733
0.122406736 0.0024297796 0.038483027 0.09674679 0.0070596957 -0.03492592 0.07480431 -0.02893757
-0.006679427 0.039294906 -0.029548429 0.061413392 0.05640883 0.07213931 0.05340378 -0.036413826
00000000: 0a6e b9bd bc7d e7bd c279 24bc 7394 05bd
00000010: a719 e6bd 03d3 a9bd 052d e1bc 59b1 793b
00000020: 4081 1d3d 39cd bb3c 7334 bbbd 6222 27bd
00000030: 7df6 0abd ab7d b2bd a217 533d 4247 b8bc
00000040: ce6c 58bc 4c9c 4dbd 3d04 ecba 3d55 c0bc
00000050: ee7c bdbd 4735 473b e092 62bd 783a 52bd
00000060: 36ca 9cbb 12c9 33bd c127 bdbd b703 d3bc
00000070: 6bfa d53b 8582 50bd 0c43 2e3b 0c19 cebd
00000080: 2ac7 71bb 84af 68bc 45cf 5ebc 43c4 62bd
00000090: 21df 4bbd ace8 09bd 3457 453c 41b1 a0bd
000000a0: f696 cabc d7ea 89bd e4c4 afbd 7452 02be
000000b0: 4c0b 3ebd 798b 3cbc 1317 9fba 3168 a3bc
000000c0: 5eae e4bd 63e4 e93c 3b9c c9bd 004e b1bd
000000d0: db6a 98ba b873 8fbd f395 e43c e020 0ebd
000000e0: f766 50bc 24fe c1bd a309 14bc fca6 103d
000000f0: 5ae5 463d f8ab b7bd 289f e8bc de5f 7a3d
00000100: d26f 97bd bee8 f33c a816 b2bd 5ee6 aebd
00000110: 69b3 c13c 723a c3bd 9b2e e63c 9712 c9bd
00000120: e257 8bbd f20d 44bd 25bd 06bd 5ec5 8bbd
00000130: fe6b 433c b468 b4bc c65f c9bd fddc dbbb
00000140: 65c2 c1bd ce61 773c d8be 9e3b 23de 90bc
00000150: 682e babd c604 e73c 4ec9 b3bb 7797 7cbd
00000160: 7b38 c03c 0ac4 593b 266e 9d3d 6e6f 21bd
00000170: 0d8e 673d 9bd3 9bbd a221 cebb bb98 4ebd
00000180: b31d c2bd ecb9 b2bd 9200 593d 934f d8bb
00000190: a535 08bd ee78 25bb d4de 443d aeb0 c43c
000001a0: 95dd c93b f8d4 203d 3df5 a3bc 7ade 91bd
000001b0: 834b bdbc 2799 9bbd 82f7 a7bc 4ce9 51bd
000001c0: 41d2 abbd 4189 61bc ae77 5ebd 0a56 b0bd
000001d0: 6da8 5abd b02d 51bc e0c7 dbbd 6fd6 1e3d
000001e0: 706d 813c 127d 573c bf7b 82bc 1372 cd3c
000001f0: d03d cfbd b65f 953b bdc5 0abc 464f c4bd
00000200: e09b 883d 78ba 6fbd ebee d23d 904c 6b3d
00000210: 408b 293c 09e3 323d 6f45 ad3c 1afa 0e3e
00000220: 59b3 9d3d 03ba 823d 921b 893c 3201 0d3d
00000230: cb70 d33d 8f3f 2c3e 0700 ed3d 9f6b 94be
00000240: b922 0e3d a8c6 0f3e a212 9bbe 197d bb3d
00000250: 42a8 d0bc 51e9 7e3d 7fbc b43d f8be cdbc
00000260: 1410 b53e b918 a53d 407f 733d 8d21 a33d
00000270: 0673 663d 9656 183d e016 ab3d 8e25 e13d
00000280: ac3e 133d f01f bf3d 4f62 26bc ce28 a23c
00000290: 83ca fa3d 04d2 7fbc 97ea 9abc 725e df3d
000002a0: de20 b53d 069e 173c ead7 ce3d 07cf 9abe
000002b0: 1967 ed3d 1ddd 013e 4ef0 363d 8865 c0bc
000002c0: f1fd a03d cad3 853d b36f 013e ab41 b73d
000002d0: fa8c 953c 4a74 27bc aa03 c73c 9db2 8a3d
000002e0: 9168 983d 567f 87bc 9f27 21bc 6d64 f43d
000002f0: 9237 1f3d 0d60 b93b 38dd 70bd ad5f ef3d
00000300: c869 923d 3520 e53d 63ef e83d 3239 c03c
00000310: 3f2f f23c a2bf c8be 73f9 44be 70a4 71be
00000320: 5649 113d 0055 543d 5b47 75bd fe56 76be
00000330: bc23 7cbe 3c4a a03c db0f dd3d 445d d03d
00000340: c235 993e 501c 0c3d c685 32be d354 c83d
00000350: adcf bb3d 1af1 8a3d d292 35be 8b03 e33d
00000360: d170 7c3c 962d 02bc 6086 213d 3ec7 bd3d
00000370: 4375 b8bc e8f4 213d 8831 22bd 0fab 89be
00000380: 4a77 00bf 54d6 22bc bf67 b9be e0d0 39bc
00000390: 317a 8ebb db62 123d 0557 04bb ff1c b4bb
000003a0: 8183 053d 5b4c b63d b8ad b7bc 21ed d3bc
000003b0: 1b1e 43bc 6cd4 663b 9744 adbb 1fea 913d
000003c0: 62b0 fa3d f03c 1f3b 61a0 1d3d 2e23 c63d
000003d0: 0555 e73b 7b0e 0fbd 0133 993d 7c0e edbc
000003e0: 18df dabb b2f3 203d 8c0f f2bc 9c8c 7b3d
000003f0: f20c 673d c6bd 933d ecbd 5a3d aa26 15bd

net.3.bias f4 [64]
-0.10233121 0.597952 -0.33804289 0.49314272 0.5707615 0.56996113 0.7149889 0.6215599
0.42233738 0.3704166 0.4396474 -0.052908745 -0.40064234 -0.37010753 0.56780493 -0.0036764424
0.47191134 0.55847055 -0.008216543 0.88897455 0.35877854 0.54965436 0.51513475 0.48221418
-0.11728894 -0.2921447 -0.78772414 0.02220061 -1.2597927 -0.048002806 0.63441426 -0.3514405
0.4998312 0.008701154 0.58085555 -0.5321455 0.5323537 -0.004286641 0.5750042 0.45127803
1.0665945 0.49051952 0.51975787 0.9618323 0.57801753 0.046522863 0.4109761 0.42331144
0.0015518911 0.4613992 0.41197106 0.4676336 0.5232279 -0.048426293 0.060231768 0.44835275
0.0066935467 0.5278928 -1.2483397 0.40850347 0.36526424 0.33464286 -0.24625452 0.4767426
00000000: 0793 d1bd 6213 193f f513 adbe 347d fc3e
00000010: 6d1d 123f f9e8 113f 8309 373f 8d1e 1f3f
00000020: 9b3c d83e 3fa7 bd3e 7719 e13e d7b6 58bd
00000030: fe20 cdbe bc7e bdbe aa5b 113f 78f0 70bb
00000040: 5d9e f13e edf7 0e3f ae9e 06bc d693 633f
00000050: d2b1 b73e 26b6 0c3f dfdf 033f c7e4 f63e
00000060: 2f35 f0bd fd93 95be 4aa8 49bf 0ede b53c
00000070: e340 a1bf 979e 44bd f968 223f 02f0 b3be
00000080: e0e9 ff3e 498f 0e3c f3b2 143f b03a 08bf
00000090: 5548 083f f376 8cbb 7a33 133f ea0d e73e
000000a0: 2b86 883f 6025 fb3e da0e 053f a43a 763f
000000b0: f5f8 133f c28e 3e3d 766b d23e 47bc d83e
000000c0: d368 cb3a 843c ec3e dfed d23e ac6d ef3e
000000d0: 43f2 053f a65a 46bd 96b5 763d 7e8e e53e
000000e0: 8a55 db3b fc23 073f 98c9 9fbf 5e27 d13e
000000f0: ea03 bb3e 4f56 ab3e 252a 7cbe 9b17 f43e

net.6.weight f4 [1, 64]
-0.025439156 0.15613505 -0.7312111 0.21387868 0.20400226 0.10195054 0.111940086 0.16880296
0.2378885 0.15300943 0.17641327 -0.049043633 -0.49901927 -0.72733754 0.11141403 -0.07861647
0.16178222 0.1375068 -0.3672942 0.22756527 0.17494783 0.16459855 0.11983061 0.1418454
-0.37939999 -1.0683264 -0.64363295 -0.7500029 -0.46574986 -0.019992417 0.13017009 -0.8523855
0.17058353 -0.67088693 0.14723139 -0.28093776 0.13409463 -0.011440448 0.19564393 0.26252717
0.37811366 0.20420156 0.14404722 0.2708689 0.16794358 -0.13302855 0.13125293 0.21367496
-0.29058954 0.15301043 0.23565336 0.13505481 0.13883695 -0.08549421 -0.10636669 0.14560151
-0.043684747 0.12822156 -0.9488716 0.19112878 0.24384455 0.084940605 -0.6816443 0.19405454
00000000: c765 d0bc dee1 1f3e a730 3bbf 0303 5b3e
00000010: f8e5 503e 72cb d03d d840 e53d afda 2c3e
00000020: 0b99 733e 81ae 1c3e aea5 343e fae1 48bd
00000030: 747f ffbe cb32 3abf 0a2d e43d ac01 a1bd
00000040: 3daa 253e 95ce 0c3e fc0d bcbe df06 693e
00000050: 8625 333e 868c 283e c069 f53d ec3f 113e
00000060: b740 c2be ebbe 88bf 21c5 24bf 3100 40bf
00000070: c476 eebe 23c7 a3bc 4f4b 053e f035 5abf
00000080: 73ad 2e3e 3fbf 2bbf d3c3 163e 13d7 8fbe
00000090: 1a50 093e b870 3bbc e256 483e f669 863e
000000a0: 1d98 c13e 371a 513e 1d81 133e 54af 8a3e
000000b0: 67f9 2b3e a338 08be 2b67 063e 9ccd 5a3e
000000c0: 27c8 94be c4ae 1c3e 1d4f 713e cf4b 0a3e
000000d0: 462b 0e3e 9717 afbd c7d6 d9bd 9018 153e
000000e0: c7ee 32bd 834c 033e 40e9 72bf 43b7 433e
000000f0: 63b2 793e 57f5 ad3d 3e80 2ebf 3cb6 463e
