EX_DEEP_LEARNING/Models/all_model.pt (torch, 4252 bytes, 5 tensors)

weight f4 [16, 3]
000000 6a 84 4e 3f ea 3f 30 3e e1 82 8d 3e 0e a5 ad 3f
       0.806708 0.17211881 0.27638915 1.3565996
000010 7f 18 7d 3e 9f ce f5 3e 25 0c 86 3f 28 a2 fe 3e
       0.24716376 0.48009202 1.0472456 0.4973309
000020 c6 30 15 bd 78 b0 9b bd 60 82 73 bd 30 fd 5a bd
       -0.036423467 -0.07602018 -0.059450507 -0.053464115
000030 83 6e 8e 3f b8 cf 82 3e 7c 37 76 3e 5b 57 42 3f
       1.1127476 0.25549102 0.24044603 0.75914544
000040 46 13 fc 3e 59 e8 fe bc 4d 29 84 3f ee 13 c4 bd
       0.49233454 -0.031116651 1.0325104 -0.09574114
000050 35 cf e7 3e 16 67 52 bf 2d 08 90 3f 5c 83 cf 3d
       0.45275274 -0.82188547 1.1252495 0.10132477
000060 3b dd e6 3f f3 e9 21 3f bf 2e 55 bd a1 fc 00 3f
       1.8036264 0.63247603 -0.052046534 0.5038548
000070 2a 9f 23 3f 4a ac c6 3e 42 73 bc 3f 31 86 7f bc
       0.6391474 0.3880332 1.4722674 -0.015595959
000080 16 d4 b8 3e dd 26 f5 3e 79 d6 4e 3f 1a d3 50 3e
       0.3609931 0.47881213 0.8079601 0.20393029
000090 8b aa 90 bf e9 12 a2 3d 30 12 2a 3f 01 ee ae 3e
       -1.1302046 0.07913763 0.66434 0.34165958
0000a0 fa 91 07 3f 6e 8c a2 3e 8d b4 3a 3f 23 73 07 3f
       0.5295712 0.31747764 0.7293175 0.5291006
0000b0 23 b0 0b 3f 24 d7 f3 3f f4 6b e3 3e 33 77 2b bd
       0.5456564 1.9050031 0.444183 -0.041861724

bias f4 [16]
000000 df 88 3f 3e 6b 84 f0 bd c0 a5 5a 3e f4 c2 5e 3e
       0.18704556 -0.11744007 0.21352291 0.21754056
000010 e7 fd ac 3d 74 a1 47 bc c1 33 13 3f fd 24 43 3d
       0.084468655 -0.0121844895 0.57500845 0.047642697
000020 95 03 02 3f 61 72 14 be d6 10 12 3f fe b5 52 3f
       0.50786716 -0.14496757 0.5705694 0.8230895
000030 73 44 07 3e 47 c9 a2 be 6c 75 1c 3f 4b 1c d4 3e
       0.13209705 -0.31794187 0.6111667 0.41427836

weight f4 [4, 16]
000000 44 fc 6b be 36 75 32 3e 34 ec 9f bd ce 2c 3b 3e
       -0.2304545 0.17427525 -0.07808724 0.1827881
000010 80 5c 56 3c 18 bf d1 bd c0 ff dd 3b 60 8d e8 bc
       0.013083577 -0.10241526 0.0067748725 -0.028387725
000020 d0 f2 fa bd be 25 78 be 80 ee 7c bc 50 52 5f bd
       -0.12253344 -0.24233148 -0.015437722 -0.05452186
000030 50 b6 2c bd 08 26 44 be e0 7d 15 3c 9a d0 67 3e
       -0.042166054 -0.19155133 0.009124249 0.22638169
000040 bc d7 04 bd 55 db 86 be 71 1a 48 be 80 5e 61 3b
       -0.032432303 -0.26339212 -0.19541337 0.0034388602
000050 21 b4 db bd e6 8a 70 3d b2 50 0a 3e b5 8c 34 3e
       -0.10727716 0.058726214 0.13507345 0.176318
000060 7a 11 49 3d 62 d7 bf 3d 4a 19 02 be fa cd e3 bd
       0.049088933 0.09367253 -0.1270496 -0.11123271
000070 a3 b2 0c 3d e5 39 be bd 36 c3 af bd 56 32 14 3d
       0.03435005 -0.09288386 -0.085821554 0.036180817
000080 74 6e 4e be 58 0a 16 3d cc 14 a1 bd 16 e3 50 be
       -0.20159322 0.03663096 -0.07865295 -0.20399126
000090 0c 0a 7b be 8c 58 f2 bd c4 42 33 3e a4 de fe 3d
       -0.24515551 -0.11833295 0.17505938 0.12444809
0000a0 60 d1 b0 bd ca 7e 0c 3e 40 94 98 bb c0 7c 4e be
       -0.08633685 0.13720241 -0.0046563447 -0.20164776
0000b0 4c 93 e7 bd 32 1b 46 be 5c c0 06 3e b0 fc c6 3c
       -0.113073915 -0.19346312 0.13159317 0.024290413
0000c0 26 3c 61 3d d9 38 33 3e 6c 68 1b 3f 5e 62 66 be
       0.054989003 0.17502154 0.6070621 -0.22498462
0000d0 e8 eb f2 3e b0 fb 3f 3f 96 83 bc 3e b7 2a 8b bf
       0.47445607 0.7499342 0.36819142 -1.087241
0000e0 77 8d 96 3f a8 a5 ac 3e ef 24 c0 3e 05 53 09 3e
       1.1761922 0.33720136 0.37528178 0.13410576
0000f0 2f fe 76 be 0a 3d 6e bb 7b 73 19 3e 2e 3e 9a 3f
       -0.24120401 -0.00363523 0.14985459 1.2050226

bias f4 [4]
000000 2c 00 37 be a4 0d 74 be 6a 3c 51 3e b5 58 df 3d
       -0.1787116 -0.23833328 0.20433202 0.109055914

weight f4 [1, 4]
000000 38 db 31 be 91 22 bb 3d f6 53 b3 be e6 8b 3a 3f
       -0.17368782 0.091374524 -0.35024995 0.7286972
