EX_DEEP_LEARNING/Models/weights_2.pth (torch, 3164 bytes, 5 tensors)

fc1.weight f4 [16, 3]
00000000: 0ca0 193f 63b0 96bd 6d49 c63e fe36 8ebf
00000010: ff43 9c3d fbcf ae3e c0e0 61be f6c0 f2be
00000020: 4ac7 d9be 9a08 babe 701b f4be e16d e7be
00000030: 0f6e eb3e f119 723f bc96 8dbd f695 5ebe
00000040: 3ac3 8fbe 02ba d8be 600a 573f 53bd ef3e
00000050: 4018 823e 5e1c 913f 1ab9 c93e a81a 10bd
00000060: dc3d f2be e07e b1be 69f8 94be 995c 383f
00000070: 5dbf 513f faf3 043f 2c5a d9be eba1 80bd
00000080: 031b 703e 2a9d a23e 9a86 dfbe 38fe c6bd
00000090: e886 b4bc af94 193f 03cb 703e 3561 243f
000000a0: 819a ec3d 903e 253f a4ff 8abe 0227 efbe
000000b0: 4e51 b9be 3e17 7fba 1425 a4be f170 d43d
0.6000984 -0.07357862 0.38727894 -1.1110532 0.07630157 0.34143052 -0.22058392 -0.47412843
-0.42534858 -0.36334687 -0.47677183 -0.45201018 0.45982406 0.94570833 -0.06913516 -0.21736893
-0.28078634 -0.42329413 0.84000206 0.4682413 0.25409126 1.1336782 0.39399034 -0.03518167
-0.4731282 -0.3466711 -0.29095772 0.7201629 0.8193262 0.5193478 -0.42451608 -0.062808834
0.23447804 0.31760532 -0.4365738 -0.09716457 -0.022036985 0.599925 0.23514943 0.64210826
0.11552907 0.6454859 -0.27148163 -0.46709448 -0.36194843 -0.00097309414 -0.32059538 0.10373104

fc1.bias f4 [16]
00000000: 4221 34bc 1df1 533f 7c38 e9be fcc4 edbd
00000010: 4f83 653f 8044 b5be c179 dd3e 248d 7b3f
00000020: eead 85be 7487 473f 39c2 c83e 7612 32be
00000030: a672 f43e b4ac fa3e 7b37 80be a8ac 49be
-0.010994257 0.82789785 -0.45550907 -0.116098374 0.89653486 -0.35403824 0.43256953 0.9826224
-0.2610926 0.7794106 0.3921068 -0.17389855 0.4774372 0.48959887 -0.25042328 -0.1969477

fc2.weight f4 [4, 16]
00000000: 35d4 503d bdc8 33bf 0c3d 113e 723e 1b3e
00000010: da09 533f 9e84 063e e2d3 273e ccfa 0d3f
00000020: 6a87 00be 5816 853e f46a c7bd 4e7f 0bbe
00000030: 370c b7bd 160e b33e 64e3 983d 5012 04be
00000040: 00f5 cb3c ce10 583e 0882 07be d8fc 02be
00000050: d6b5 5abe baef 313e 78d6 5abe 745b 853d
00000060: d2cb 65be e0cc 5dbe 5c71 23be b4dc bf3d
00000070: 0c83 c2bd 4000 28be 5cab a23d fac0 693e
00000080: 5788 873e 305c 3fbf 48bc 59bd dea7 29be
00000090: 139d 5a3f eca0 873d 83d2 d23e 25a0 303f
000000a0: b026 373d 1eda f93d 9476 63bd abcd b7bc
000000b0: d93e 943e 2f34 2f3e 18ce 46be 72c7 2e3c
000000c0: 087f 173e 9dcf 29bf 224e 05be f8d8 973d
000000d0: ae88 323f 5477 b53d 52be b13e 8c1e 243f
000000e0: 74ae 1bbe 8959 c43e f8e1 463e ea1b 1e3e
000000f0: 4640 7a3e 37bb 5a3e b859 4a3d daa4 6dbd
0.050983626 -0.7022818 0.14183444 0.1516054 0.8243691 0.13136527 0.1638942 0.5546081
-0.12551656 0.2599361 -0.097371966 -0.13622782 -0.08937877 0.34971684 0.07465246 -0.1289761
0.024897099 0.2110016 -0.13233197 -0.12791765 -0.21358427 0.17376605 -0.21370876 0.06511584
-0.22441033 -0.21660185 -0.15961212 0.09368268 -0.094976515 -0.16406345 0.079428405 0.22827521
0.26471207 -0.7475004 -0.053158075 -0.16567943 0.85395926 0.0662249 0.41176233 0.6899436
0.04471463 0.12199806 -0.055533007 -0.022436937 0.289542 0.1710975 -0.19414556 0.010667669
0.14794552 -0.6633242 -0.13018087 0.074144304 0.69739807 0.08860651 0.34715515 0.6410911
-0.15203267 0.3834956 0.19422138 0.15440336 0.24438581 0.2136048 0.04940197 -0.058018543

fc2.bias f4 [4]
00000000: 6593 a43d 38b7 1abd cf59 893d fe34 e63e
0.08035926 -0.037772387 0.06706583 0.44962305

out.weight f4 [1, 4]
00000000: 515a 553f e026 a93d e79a 3e3f d31c 953e
0.83340937 0.08259368 0.7445511 0.29123554
