EX_DEEP_LEARNING/Models/weights_6.pth (torch, 3164 bytes, 5 tensors)

fc1.weight f4 [16, 3]
0	0x3f496b0b	0.7867896
1	0x3e5ac30a	0.21363464
2	0x3e8e05c3	0.2773877
3	0x3faa684a	1.3313076
4	0x3e9e78a9	0.3095143
5	0x3ef60f2e	0.48058456
6	0x3f81a80b	1.0129408
7	0x3f12b155	0.5730184
8	0xbd38a67a	-0.04508064
9	0xbd9bb078	-0.07602018
10	0xbd738260	-0.059450507
11	0xbd5afd30	-0.053464115
12	0x3f8b541d	1.0885044
13	0x3e9f1a82	0.3107491
14	0x3e766250	0.2406094
15	0x3f39a065	0.7251037
16	0x3f11cc82	0.5695268
17	0xbd258ecd	-0.04041939
18	0x3f8166ab	1.0109457
19	0xbd3e1926	-0.046410702
20	0x3ee7edd2	0.4529863
21	0xbf412135	-0.75441295
22	0x3f74dbbe	0.956478
23	0x3dcf4126	0.10119848
24	0x3fe19f7d	1.7626797
25	0x3f3870df	0.7204723
26	0xbd8427bb	-0.064528905
27	0x3ef8a0b9	0.48560122
28	0x3f2e51f4	0.680938
29	0x3ec6c999	0.38825682
30	0x3fb91c2c	1.4461722
31	0x3d373782	0.04473067
32	0x3eb8ef2d	0.36119977
33	0x3eec6ddb	0.46177563
34	0x3f59e9c9	0.8512235
35	0x3e5151ef	0.20441411
36	0xbf8c0083	-1.0937656
37	0xbcbf7fd6	-0.023376387
38	0x3f29f107	0.66383404
39	0x3eaf6e68	0.3426392
40	0x3f07ae37	0.53000206
41	0x3ea33f26	0.31884116
42	0x3f363833	0.71179503
43	0x3f127b2f	0.57219213
44	0x3f0bd021	0.54614455
45	0x3fee000c	1.8593764
46	0x3f0a439c	0.54009414
47	0xbd501bdd	-0.050807822

fc1.bias f4 [16]
0	0x3e50ed2c	0.20402974
1	0xbdbc0e6d	-0.09182439
2	0x3e7787c8	0.2417289
3	0x3e5ec2f4	0.21754056
4	0x3ddae5f4	0.10688391
5	0x3c87df8d	0.01658609
6	0x3f184ad2	0.59489167
7	0xbd3f9de5	-0.04678144
8	0x3f0a4db5	0.5402482
9	0xbe033bf9	-0.12815847
10	0x3f185c48	0.5951581
11	0x3f57401d	0.84082204
12	0x3da27334	0.079321295
13	0xbea247b7	-0.3169534
14	0x3f20ee24	0.62863374
15	0x3ee75131	0.45179132

fc2.weight f4 [4, 16]
0	0xbe6bfc44	-0.2304545
1	0x3e327536	0.17427525
2	0xbd9fec34	-0.07808724
3	0x3e3b2cce	0.1827881
4	0x3c565c80	0.013083577
5	0xbdd1bf18	-0.10241526
6	0x3bddffc0	0.0067748725
7	0xbce88d60	-0.028387725
8	0xbdfaf2d0	-0.12253344
9	0xbe7825be	-0.24233148
10	0xbc7cee80	-0.015437722
11	0xbd5f5250	-0.05452186
12	0xbd2cb650	-0.042166054
13	0xbe442608	-0.19155133
14	0x3c157de0	0.009124249
15	0x3e67d09a	0.22638169
16	0xbd04a533	-0.03238411
17	0xbe86d506	-0.263344
18	0xbe480dd0	-0.19536519
19	0x3b615e80	0.0034388602
20	0xbddb9ae2	-0.10722901
21	0x3d70bd6f	0.058774408
22	0x3e0a5d53	0.13512163
23	0x3e349956	0.17636618
24	0x3d494403	0.049137127
25	0x3dbff0a1	0.09372068
26	0xbe020ca9	-0.12700142
27	0xbde3b4bb	-0.11118456
28	0x3d0ce52c	0.034398243
29	0xbdbe20a6	-0.09283571
30	0xbdafa9f7	-0.0857734
31	0x3d1464df	0.03622901
32	0xbe4e6e74	-0.20159322
33	0x3d160a58	0.03663096
34	0xbda114cc	-0.07865295
35	0xbe50e316	-0.20399126
36	0xbe7b0a0c	-0.24515551
37	0xbdf2588c	-0.11833295
38	0x3e3342c4	0.17505938
39	0x3dfedea4	0.12444809
40	0xbdb0d160	-0.08633685
41	0x3e0c7eca	0.13720241
42	0xbb989440	-0.0046563447
43	0xbe4e7cc0	-0.20164776
44	0xbde7934c	-0.113073915
45	0xbe461b32	-0.19346312
46	0x3e06c05c	0.13159317
47	0x3cc6fcb0	0.024290413
48	0x3d563fe5	0.05230703
49	0x3e2f4682	0.1711674
50	0x3f1b9ac8	0.6078305
51	0xbe66625e	-0.22498462
52	0x3ef0bc9b	0.47018895
53	0x3f42cb63	0.76091594
54	0x3eb97338	0.36220717
55	0xbf7065be	-0.93905246
56	0x3f9598d8	1.1687269
57	0x3eaf0530	0.34183645
58	0x3ebc217a	0.3674429
59	0x3e1448f0	0.14480948
60	0xbe713945	-0.23557003
61	0x3a418ae0	0.000738306
62	0x3e1b5672	0.15169695
63	0x3f980551	1.1876622

fc2.bias f4 [4]
0	0xbe37002c	-0.1787116
1	0xbe740103	-0.23828511
2	0x3e513c6a	0.20433202
3	0x3e010b71	0.12602021

out.weight f4 [1, 4]
0	0xbe31db38	-0.17368782
1	0x3dbb3bd0	0.09142268
2	0xbeb353f6	-0.35024995
3	0x3f37beb4	0.71775365
