EX_DEEP_LEARNING/Models/weights_8.pth (torch, 3164 bytes, 5 tensors)

fc1.weight f4 [16, 3]
000000 9c d8 4d 3f 94 89 37 3e ab be 8d 3e 61 34 ad 3f
       0.80408645 0.17923576 0.2768453 1.353161
000010 d7 9b 83 3e f8 e7 f5 3e 1d 74 85 3f 0f 21 02 3f
       0.25704834 0.4802854 1.042606 0.50831693
000020 b4 46 1d bd 78 b0 9b bd 60 82 73 bd 30 fd 5a bd
       -0.038397506 -0.07602018 -0.059450507 -0.053464115
000030 f2 00 8e 3f 65 49 87 3e 03 43 76 3e ca 28 41 3f
       1.1094038 0.26423183 0.24049 0.75452864
000040 f8 d9 00 3f eb 8d 09 bd 7a c7 83 3f f0 d7 b3 bd
       0.50332594 -0.03358261 1.029525 -0.08781421
000050 60 d9 e7 3e d1 e5 51 bf 79 1c 8d 3f bd ba cf 3d
       0.4528303 -0.81991297 1.1024314 0.101430394
000060 ad 29 e6 3f 1a 0c 25 3f 73 70 60 bd 83 58 00 3f
       1.7981468 0.6447159 -0.05479474 0.5013506
000070 8a 57 25 3f 3d b7 c6 3e 6d fd bb 3f 4a 7e c7 bb
       0.645867 0.38811675 1.4686714 -0.006088053
000080 e0 db b8 3e 01 03 f4 3e 2b 98 50 3f c1 0d 51 3e
       0.3610525 0.47658542 0.8148219 0.20415403
000090 6c 98 90 bf 55 b0 80 3d ae 10 2a 3f 53 30 af 3e
       -1.1296515 0.06283633 0.664317 0.34216556
0000a0 ce a0 07 3f fa e7 a2 3e c1 19 3a 3f c9 3d 09 3f
       0.52979743 0.3181761 0.7269555 0.536099
0000b0 dd bd 0b 3f 9f 12 f3 3f b6 72 ea 3e 9a 77 2f bd
       0.54586583 1.8990058 0.45790642 -0.04283867

fc1.bias f4 [16]
000000 80 07 40 3e 54 cf ef bd e2 b0 59 3e f4 c2 5e 3e
       0.18752861 -0.117094666 0.21258882 0.21754056
000010 7d 5f ad 3d 8c 22 5a bc cd 3f 13 3f 2d 29 29 3d
       0.084654786 -0.013313901 0.5751923 0.041299034
000020 bd a9 01 3f b7 47 14 be 65 1f 12 3f 39 c9 52 3f
       0.50649625 -0.14480482 0.57079154 0.8233829
000030 ce f7 02 3e 3e 7f a2 be df 86 1c 3f fa f8 d3 3e
       0.12789842 -0.31737703 0.61143297 0.41400892

fc2.weight f4 [4, 16]
000000 44 fc 6b be 36 75 32 3e 34 ec 9f bd ce 2c 3b 3e
       -0.2304545 0.17427525 -0.07808724 0.1827881
000010 80 5c 56 3c 18 bf d1 bd c0 ff dd 3b 60 8d e8 bc
       0.013083577 -0.10241526 0.0067748725 -0.028387725
000020 d0 f2 fa bd be 25 78 be 80 ee 7c bc 50 52 5f bd
       -0.12253344 -0.24233148 -0.015437722 -0.05452186
000030 50 b6 2c bd 08 26 44 be e0 7d 15 3c 9a d0 67 3e
       -0.042166054 -0.19155133 0.009124249 0.22638169
000040 bc d7 04 bd 55 db 86 be 71 1a 48 be 80 5e 61 3b
       -0.032432303 -0.26339212 -0.19541337 0.0034388602
000050 21 b4 db bd e6 8a 70 3d b2 50 0a 3e b5 8c 34 3e
       -0.10727716 0.058726214 0.13507345 0.176318
000060 7a 11 49 3d 62 d7 bf 3d 4a 19 02 be fa cd e3 bd
       0.049088933 0.09367253 -0.1270496 -0.11123271
000070 a3 b2 0c 3d e5 39 be bd 36 c3 af bd 56 32 14 3d
       0.03435005 -0.09288386 -0.085821554 0.036180817
000080 74 6e 4e be 58 0a 16 3d cc 14 a1 bd 16 e3 50 be
       -0.20159322 0.03663096 -0.07865295 -0.20399126
000090 0c 0a 7b be 8c 58 f2 bd c4 42 33 3e a4 de fe 3d
       -0.24515551 -0.11833295 0.17505938 0.12444809
0000a0 60 d1 b0 bd ca 7e 0c 3e 40 94 98 bb c0 7c 4e be
       -0.08633685 0.13720241 -0.0046563447 -0.20164776
0000b0 4c 93 e7 bd 32 1b 46 be 5c c0 06 3e b0 fc c6 3c
       -0.113073915 -0.19346312 0.13159317 0.024290413
0000c0 aa e6 5f 3d 32 c0 32 3e 80 8e 1b 3f 5e 62 66 be
       0.054663338 0.17456129 0.6076431 -0.22498462
0000d0 e6 ab f2 3e 4b 99 40 3f 34 10 bc 3e 48 02 89 bf
       0.47396773 0.75233907 0.36731112 -1.0703821
0000e0 de 7a 96 3f 89 10 ad 3e ff 92 bf 3e f2 07 0b 3e
       1.1756246 0.33801678 0.37416837 0.1357725
0000f0 0c a0 76 be 9c 59 3b bb 56 c5 19 3e b9 fd 99 3f
       -0.2408449 -0.0028587347 0.15016684 1.2030555

fc2.bias f4 [4]
000000 2c 00 37 be a4 0d 74 be 6a 3c 51 3e cf 85 df 3d
       -0.1787116 -0.23833328 0.20433202 0.10914194

out.weight f4 [1, 4]
000000 38 db 31 be 91 22 bb 3d f6 53 b3 be a6 36 3a 3f
       -0.17368782 0.091374524 -0.35024995 0.72739637
