EX_DEEP_LEARNING/Models/weights_4.pth (torch, 3164 bytes, 5 tensors)

fc1.weight f4 [16, 3]
00000000: d15e 3b3f 027c 8e3e 6f12 903e 53e5 a03f
00000010: 851a d73e 05e9 f93e e7c6 673f 43c0 383f
00000020: 2f5f 6abd 78b0 9bbd 6082 73bd 30fd 5abd
00000030: e508 823f 39c8 d13e bee5 7c3e 6ca9 1d3f
00000040: 1b2f 393f 62a6 72bd 4e85 723f c777 223d
00000050: 88c7 ea3e 79dd 83be a01d dd3e 8d4d 643d
00000060: e3da d03f e9ac 673f 6b69 b2bd 83df db3e
00000070: fe86 413f d94e c93e 5a40 af3f 17ee 1b3e
00000080: 797e bc3e 49f1 ce3e e083 6f3f a17f 573e
00000090: 964c 6cbf 1361 63be 89a1 263f 4a92 ac3e
000000a0: 4380 093f 3ad2 a33e d06a 283f 7728 263f
000000b0: 822d 0d3f 4c06 db3f f16f 3e3f 8d37 98bd
0.73191553 0.27828985 0.28139064 1.2569984 0.4201242 0.48810592 0.90537876 0.7216837
-0.05721968 -0.07602018 -0.059450507 -0.053464115 1.0158964 0.4097307 0.24697015 0.6158664
0.723375 -0.059240706 0.94734657 0.03966501 0.45855355 -0.25754908 0.43186665 0.05573802
1.6316799 0.90498215 -0.08711513 0.42943963 0.75596607 0.39317968 1.3691514 0.15227543
0.3681524 0.4041846 0.935606 0.2104478 -0.9230436 -0.22205 0.65090233 0.3370536
0.53711337 0.31996328 0.6578798 0.64905494 0.55147564 1.7111297 0.7438956 -0.074324705

fc1.bias f4 [16]
00000000: dfe4 773e 5f67 d9bc c6a0 a53e f4c2 5e3e
00000010: 8e09 293e e8af cb3d 7436 253f d135 d7be
00000020: 51be 233f 8584 acbd d793 283f a1f1 633f
00000030: d096 43bd fe13 a0be bc76 2c3f 7cfb 0f3f
0.24208401 -0.026538549 0.32349223 0.21754056 0.16507551 0.09945661 0.64536214 -0.42033246
0.63962275 -0.084237136 0.65850586 0.8904057 -0.047751248 -0.31265253 0.67368674 0.5624311

fc2.weight f4 [4, 16]
00000000: 44fc 6bbe 3675 323e 34ec 9fbd ce2c 3b3e
00000010: 805c 563c 18bf d1bd c0ff dd3b 608d e8bc
00000020: d0f2 fabd be25 78be 80ee 7cbc 5052 5fbd
00000030: 50b6 2cbd 0826 44be e07d 153c 9ad0 673e
00000040: 0073 73bb 884e 70be 52b2 2abe 805e 613b
00000050: e0e3 a0bd bc15 b33d d0b8 273e d6f4 513e
00000060: 0459 9f3d a4a7 fa3d 5462 c9bd b8fd a8bd
00000070: 9429 813d a469 83bd e8e5 69bd 70e9 843d
00000080: 746e 4ebe 580a 163d cc14 a1bd 16e3 50be
00000090: 0c0a 7bbe 8c58 f2bd c442 333e a4de fe3d
000000a0: 60d1 b0bd ca7e 0c3e 4094 98bb c07c 4ebe
000000b0: 4c93 e7bd 321b 46be 5cc0 063e b0fc c63c
000000c0: 248a 393d 5e1a 253e ac8b 173f 5e62 66be
000000d0: 84fe e93e 4048 433f 6632 b33e c8ef cdbe
000000e0: 66b4 8f3f b1f9 b33e 3a41 b23e a8a6 283e
000000f0: 9be4 58be 214d 0e3c 48d1 1f3e b909 8f3f
-0.2304545 0.17427525 -0.07808724 0.1827881 0.013083577 -0.10241526 0.0067748725 -0.028387725
-0.12253344 -0.24233148 -0.015437722 -0.05452186 -0.042166054 -0.19155133 0.009124249 0.22638169
-0.0037147403 -0.23467457 -0.16669586 0.0034388602 -0.07855964 0.0874438 0.16379094 0.20503554
0.0778065 0.12239006 -0.09833208 -0.08251518 0.063067585 -0.06416634 -0.05710402 0.06489837
-0.20159322 0.03663096 -0.07865295 -0.20399126 -0.24515551 -0.11833295 0.17505938 0.12444809
-0.08633685 0.13720241 -0.0046563447 -0.20164776 -0.113073915 -0.19346312 0.13159317 0.024290413
0.045297757 0.1612334 0.591975 -0.22498462 0.45701993 0.7628212 0.34999388 -0.40222
1.1226928 0.35151437 0.3481539 0.16469824 -0.21180956 0.008685381 0.15607178 1.1174842

fc2.bias f4 [4]
00000000: 2c00 37be 86a5 56be 6a3c 513e f01b 2e3e
-0.1787116 -0.2096158 0.20433202 0.17002845

out.weight f4 [1, 4]
00000000: 38db 31be d0f2 f53d f653 b3be 7f1f 303f
-0.17368782 0.120092034 -0.35024995 0.6879806
