EX_DEEP_LEARNING/Models/weights_5.pth (torch, 3164 bytes, 5 tensors)

fc1.weight f4 [16, 3]
00000000: 4a18 443f 41ac 793e 0a26 8e3e 6fec a63f
00000010: 5ddd b73e 7a27 f63e e47c 793f 1f89 233f
00000020: cb6d 53bd 78b0 9bbd 6082 73bd 30fd 5abd
00000030: 4af6 873f e6b3 b53e 307b 763e 25c5 2f3f
00000040: ef3a 233f 3145 45bd 72e0 7c3f 0080 febb
00000050: 81fb e73e 994e 1dbf 78a3 443f 86da cb3d
00000060: afac db3f 0f23 4d3f 97c1 97bd a55c ee3e
00000070: 78d2 363f 49d4 c63e 0f83 b53f 653e be3d
00000080: a2fe b83e 4c42 e23e b22f 633f 0870 513e
00000090: b829 84bf e805 debd fed8 293f d8ec ae3e
000000a0: a32d 083f 5e5d a33e f248 313f 9c32 1b3f
000000b0: 22d9 0b3f 5444 e73f 02d1 203f 9a8c 7dbd
0.7659956 0.24382116 0.27763397 1.3040904 0.35911074 0.48076993 0.9745619 0.63881105
-0.05161838 -0.07602018 -0.059450507 -0.053464115 1.0622036 0.35488814 0.2407043 0.68660194
0.637618 -0.04816169 0.98779976 -0.0077667236 0.4530907 -0.61448056 0.76811934 0.099537894
1.7162074 0.8013162 -0.07409971 0.46555057 0.714149 0.38833836 1.4180621 0.092892446
0.3613177 0.44191206 0.8874465 0.20452893 -1.0325232 -0.1084097 0.6634673 0.34165072
0.53194636 0.3190717 0.6925193 0.606241 0.54628193 1.8067727 0.6281892 -0.061901666

fc1.bias f4 [16]
00000000: 3e1a 633e 9910 80bd c2e9 8e3e f4c2 5e3e
00000010: 6807 083e d97f 613d 7f17 1e3f aa42 37be
00000020: 6700 163f 92ac debd b9a0 1f3f 29b3 5c3f
00000030: 21cb cc3c 66a8 a1be 7009 263f dc69 003f
0.2217798 -0.06253166 0.27912718 0.21754056 0.13284075 0.055053566 0.617546 -0.17896524
0.58594364 -0.10872759 0.6235462 0.86210877 0.024999203 -0.3157379 0.6485815 0.5016153

fc2.weight f4 [4, 16]
00000000: 44fc 6bbe 3675 323e 34ec 9fbd ce2c 3b3e
00000010: 805c 563c 18bf d1bd c0ff dd3b 608d e8bc
00000020: d0f2 fabd be25 78be 80ee 7cbc 5052 5fbd
00000030: 50b6 2cbd 0826 44be e07d 153c 9ad0 673e
00000040: 0073 73bb 884e 70be 52b2 2abe 805e 613b
00000050: e0e3 a0bd bc15 b33d d0b8 273e d6f4 513e
00000060: 0459 9f3d a4a7 fa3d 5462 c9bd b8fd a8bd
00000070: 9429 813d a469 83bd e8e5 69bd 70e9 843d
00000080: 746e 4ebe 580a 163d cc14 a1bd 16e3 50be
00000090: 0c0a 7bbe 8c58 f2bd c442 333e a4de fe3d
000000a0: 60d1 b0bd ca7e 0c3e 4094 98bb c07c 4ebe
000000b0: 4c93 e7bd 321b 46be 5cc0 063e b0fc c63c
000000c0: 2b97 483d 3f80 2a3e 1cc8 1a3f 5e62 66be
000000d0: 32f3 ed3e a811 443f fe5e b63e 0401 43bf
000000e0: 6fe7 933f e69a b03e 83eb b73e 9298 1c3e
000000f0: 5043 6abe a5cc 5b3b db33 1c3e db1b 953f
-0.2304545 0.17427525 -0.07808724 0.1827881 0.013083577 -0.10241526 0.0067748725 -0.028387725
-0.12253344 -0.24233148 -0.015437722 -0.05452186 -0.042166054 -0.19155133 0.009124249 0.22638169
-0.0037147403 -0.23467457 -0.16669586 0.0034388602 -0.07855964 0.0874438 0.16379094 0.20503554
0.0778065 0.12239006 -0.09833208 -0.08251518 0.063067585 -0.06416634 -0.05710402 0.06489837
-0.20159322 0.03663096 -0.07865295 -0.20399126 -0.24515551 -0.11833295 0.17505938 0.12444809
-0.08633685 0.13720241 -0.0046563447 -0.20164776 -0.113073915 -0.19346312 0.13159317 0.024290413
0.04897229 0.16650485 0.6046159 -0.22498462 0.46474606 0.7658944 0.35619348 -0.76173425
1.1555003 0.34493178 0.3592187 0.15292576 -0.2287724 0.0033538726 0.15254156 1.1649126

fc2.bias f4 [4]
00000000: 2c00 37be 86a5 56be 6a3c 513e ee18 153e
-0.1787116 -0.2096158 0.20433202 0.14560291

out.weight f4 [1, 4]
00000000: 38db 31be d0f2 f53d f653 b3be e8c4 343f
-0.17368782 0.120092034 -0.35024995 0.70612955
