EX_DEEP_LEARNING/Models/weights_0.pth (torch, 3164 bytes, 5 tensors)

fc1.weight f4 [16, 3]
000000 20 fa 3f 3f 8f 9d 71 be c6 23 c9 3e a2 f3 8e bf
       0.74991035 -0.2359526 0.39285105 -1.1168101
000010 dc 69 14 3f ba 60 b7 3e c0 e0 61 be f6 c0 f2 be
       0.5797403 0.35815984 -0.22058392 -0.47412843
000020 4a c7 d9 be 9a 08 ba be 70 1b f4 be e1 6d e7 be
       -0.42534858 -0.36334687 -0.47677183 -0.45201018
000030 3b 64 2a 3f be 2d 34 3f eb 3f 52 bd f6 95 5e be
       0.6655919 0.703823 -0.05133049 -0.21736893
000040 3a c3 8f be 02 ba d8 be b2 d9 7a 3f 82 b3 9f 3e
       -0.28078634 -0.42329413 0.97988427 0.3119164
000050 0f d3 84 3e b9 28 ad 3f ae 8e 0b 3e 6f e3 b4 bc
       0.25942275 1.3528053 0.13628647 -0.022081105
000060 dc 3d f2 be e0 7e b1 be 69 f8 94 be f2 e8 58 3f
       -0.4731282 -0.3466711 -0.29095772 0.84730446
000070 67 af 2c 3f f8 22 06 3f 71 a8 d5 be 8c c8 d6 3d
       0.6745514 0.5239711 -0.41730073 0.1048747
000080 3c 90 70 3e db 4e 98 3e 5c 83 e7 be f9 c9 ce bd
       0.23492521 0.29747662 -0.45217407 -0.10097117
000090 2f 67 8a 3d ae ea fb 3e 0f e6 71 3e a5 78 41 3f
       0.06757962 0.49202484 0.23622917 0.75574714
0000a0 b0 6d 0a bc a3 45 26 3f a4 ff 8a be 02 27 ef be
       -0.008449003 0.6495001 -0.27148163 -0.46709448
0000b0 4e 51 b9 be 4a ba bc bc 7f 17 8e be bb 55 c5 3d
       -0.36194843 -0.023038048 -0.277523 0.096354924

fc1.bias f4 [16]
000000 49 41 4e bd 37 03 99 3f 7c 38 e9 be fc c4 ed bd
       -0.05035523 1.1954106 -0.45550907 -0.116098374
000010 4b 2b 51 3f 80 44 b5 be b2 f0 c6 3e 43 a4 65 3f
       0.81706685 -0.35403824 0.3885551 0.8970377
000020 ee ad 85 be d1 1c 3d 3f 0b d4 fd 3e 54 e4 45 be
       -0.2610926 0.73872095 0.49575838 -0.19325382
000030 8f d1 e3 3e d0 ee e9 3e 7b 37 80 be 2e 3a 35 be
       0.44495818 0.45690012 -0.25042328 -0.17697975

fc2.weight f4 [4, 16]
000000 89 a7 b0 3d 94 03 4d bf 0c 3d 11 3e 72 3e 1b 3e
       0.08625705 -0.80083585 0.14183444 0.1516054
000010 99 3f 3f 3f 9e 84 06 3e 5a 27 40 3e 9f 8f 2b 3f
       0.7470642 0.13136527 0.18765011 0.67016023
000020 6a 87 00 be f2 2e 87 3e 5b 5a dc bd 33 fc aa bd
       -0.12551656 0.26403004 -0.107594214 -0.083488844
000030 1a bd ef bd 14 3b bb 3e 64 e3 98 3d fd ea b4 bd
       -0.1170599 0.3656851 0.07465246 -0.08833883
000040 00 f5 cb 3c ce 10 58 3e 08 82 07 be d8 fc 02 be
       0.024897099 0.2110016 -0.13233197 -0.12791765
000050 d6 b5 5a be ba ef 31 3e 78 d6 5a be 74 5b 85 3d
       -0.21358427 0.17376605 -0.21370876 0.06511584
000060 d2 cb 65 be e0 cc 5d be 5c 71 23 be b4 dc bf 3d
       -0.22441033 -0.21660185 -0.15961212 0.09368268
000070 0c 83 c2 bd 40 00 28 be 5c ab a2 3d fa c0 69 3e
       -0.094976515 -0.16406345 0.079428405 0.22827521
000080 7e c4 98 3e 0b 95 58 bf 48 bc 59 bd de a7 29 be
       0.29837412 -0.8460242 -0.053158075 -0.16567943
000090 aa d5 46 3f ec a0 87 3d 33 88 de 3e 54 30 4e 3f
       0.77669775 0.0662249 0.43463287 0.8054249
0000a0 b0 26 37 3d cd da 00 3e 1b a7 83 bd f7 1e 80 3c
       0.04471463 0.12583466 -0.06428357 0.015639765
0000b0 ff 8e 86 3e 55 8e 3e 3e 18 ce 46 be 65 cf 32 3d
       0.26280972 0.18608983 -0.19414556 0.043654818
0000c0 1f 74 46 3e de 4e 44 bf 22 4e 05 be f8 d8 97 3d
       0.19380234 -0.7668284 -0.13018087 0.074144304
0000d0 af a7 1d 3f 54 77 b5 3d 01 87 c1 3e 9c 46 44 3f
       0.6158399 0.08860651 0.37798312 0.7667024
0000e0 74 ae 1b be 51 ec c6 3e bc ae 36 3e 51 b4 6a 3e
       -0.15203267 0.3885217 0.17840093 0.22920348
0000f0 c5 a2 55 3e 0c da 70 3e b8 59 4a 3d af 94 ee 3b
       0.20862873 0.23520678 0.04940197 0.007280908

fc2.bias f4 [4]
000000 2d 25 6f 3d 38 b7 1a bd c6 be 3f 3d 55 27 d5 3e
       0.058385063 -0.037772387 0.046812795 0.4163157

out.weight f4 [1, 4]
000000 2d f0 62 3f e0 26 a9 3d a4 d7 4a 3f ff 23 a5 3e
       0.8864773 0.08259368 0.7923529 0.32254025
