EX_DEEP_LEARNING/Models/weights_3.pth (torch, 3164 bytes, 5 tensors)

fc1.weight f4 [16, 3]
0	0x3f3b22a9	0.7309976
1	0x3e3dbd23	0.18529181
2	0x3ef74356	0.4829356
3	0x3fa7de86	1.3114784
4	0x3f840570	1.0314159
5	0xbde16131	-0.11004866
6	0x3ec18eb2	0.3780418
7	0x3e6053a5	0.21906908
8	0x3f15ec82	0.5856401
9	0x3f9dd7a1	1.233143
10	0x3f582121	0.8442555
11	0xbdbaea8b	-0.09126767
12	0xbcd79e15	-0.026320497
13	0xbf197f06	-0.5995945
14	0x3e131249	0.14362444
15	0x3f9f400c	1.244142
16	0x3eb7c226	0.3589031
17	0x3ecde9bd	0.4021739
18	0xbe6f506c	-0.23370522
19	0xbe8ed9f1	-0.2790065
20	0xbef89465	-0.48550716
21	0xbeb70822	-0.35748392
22	0x3d4b4460	0.049625754
23	0xbe981971	-0.2970691
24	0xbd55ebc2	-0.05222679
25	0x3dbc5eb6	0.09197752
26	0xbecd53fe	-0.40103143
27	0x3eda4195	0.4262816
28	0x3f8267ba	1.0187905
29	0x3e3412d6	0.1758531
30	0x3e1f71fe	0.15570828
31	0x3e927284	0.28602993
32	0x3f2a8da4	0.66622376
33	0x3fb6fc75	1.4295794
34	0x3f7a24d1	0.9771243
35	0xbdea5730	-0.11442411
36	0x3fbc7dbd	1.4725872
37	0x3dfa2dbf	0.122157566
38	0xbd2fb31f	-0.042895433
39	0x3f20b983	0.6278307
40	0x3f0c0c02	0.5470582
41	0xbd870717	-0.06593149
42	0x3fab5f6f	1.3388499
43	0x3c0a854e	0.008454634
44	0xbc8b20ee	-0.016983476
45	0x3f9ce790	1.2258167
46	0xbd815298	-0.06314582
47	0x3dab3d63	0.08361318

fc1.bias f4 [16]
0	0x3e73fe27	0.2382742
1	0x3e81ceb0	0.25353003
2	0x3eb70ab4	0.35750353
3	0x3e61a74b	0.22036473
4	0xbe8576ea	-0.26067287
5	0x3f4511ce	0.7698029
6	0x3e30cf10	0.17266488
7	0xbf07d1b6	-0.5305437
8	0x3d863775	0.06553546
9	0xbd038bd2	-0.032115765
10	0x3e3fad3a	0.18718424
11	0x3f402f6e	0.7507237
12	0x3f615785	0.8802417
13	0x3f5c7141	0.8611031
14	0x3dea8565	0.11451224
15	0x3cfab34d	0.030603075

fc2.weight f4 [4, 16]
0	0xbe25fee7	-0.16210519
1	0x3df671f6	0.12033455
2	0x3e124df3	0.14287548
3	0xbe5246fb	-0.2053489
4	0xbe1b9223	-0.15192465
5	0x3e3570f8	0.17718875
6	0xbe1d66b8	-0.15371215
7	0x3b02cd00	0.0019958615
8	0xbe4812f3	-0.19538479
9	0x3d365284	0.044512287
10	0xbe78cb37	-0.2429627
11	0xbcc933df	-0.024560867
12	0xbdf23e87	-0.118283324
13	0xbe438764	-0.19094616
14	0x3db6ceb1	0.08926142
15	0xbe38069f	-0.17971276
16	0xbdb85c7e	-0.090020165
17	0x3e1755e7	0.14778863
18	0xbd3d4187	-0.04620507
19	0xbd23cceb	-0.039990347
20	0xbdf7871f	-0.12086319
21	0x3cc8b8fe	0.024502274
22	0x3e472346	0.1944705
23	0xbd6ba7c0	-0.057533026
24	0x3e2eb9e3	0.17063098
25	0xbe8901a6	-0.2675907
26	0x3de2a3d3	0.11066403
27	0x3e300f74	0.17193395
28	0xbe984645	-0.2974111
29	0xbe35bff3	-0.17749004
30	0xbe8085ef	-0.25102183
31	0x3bd02c49	0.0063529355
32	0x3e663ac4	0.22483355
33	0x3f9aeac7	1.2102898
34	0x3ece9875	0.4035069
35	0x3f502e5f	0.81320757
36	0xbdb4adb0	-0.08822191
37	0x3f204b86	0.6261524
38	0x3e6655cc	0.22493666
39	0xbdb08150	-0.086184144
40	0x3d0b2942	0.033974893
41	0x3f277e56	0.6542715
42	0x3eb6d772	0.35711247
43	0x3fa1eb61	1.2649957
44	0x3f84f67c	1.0387721
45	0x3f6fdff3	0.93701094
46	0x3f4c8c98	0.7990203
47	0x3f052d68	0.5202241
48	0x3d38efc2	0.045150526
49	0xbe6b2771	-0.22964264
50	0x3dc44550	0.09583533
51	0xbe687c20	-0.227036
52	0x3e1fbc6e	0.15599224
53	0xbe696e0e	-0.22795889
54	0x3dbc12ec	0.091832966
55	0x3e2ab734	0.16671449
56	0xbdec31ac	-0.11532912
57	0xbcd02c0f	-0.025411634
58	0x3b08a8ad	0.0020852492
59	0x3e00d01e	0.1257939
60	0xbe06965e	-0.13143298
61	0x3e042136	0.12903294
62	0x3da25590	0.07926476
63	0xbe8e2b9f	-0.27767655

fc2.bias f4 [4]
0	0xbcbd1a25	-0.023083756
1	0x3e436fe0	0.19085646
2	0x3eafb533	0.34317932
3	0xbd9e34d4	-0.0772492

out.weight f4 [1, 4]
0	0xbd9fa51b	-0.07795163
1	0xbec0af46	-0.37633723
2	0x3ef63324	0.48085892
3	0xbeb7cb30	-0.35897207
