EX_DEEP_LEARNING/Models/weights_1.pth (torch, 3164 bytes, 5 tensors)

fc1.weight f4 [16, 3]
000000 d4 1b 41 3f ea 9b 70 be 2a 07 c9 3e fe 3c 8c bf
       0.7543309 -0.23496976 0.39263278 -1.0956113
000010 7f 20 18 3f b1 d6 b7 3e c0 e0 61 be f6 c0 f2 be
       0.59424585 0.35905984 -0.22058392 -0.47412843
000020 4a c7 d9 be 9a 08 ba be 70 1b f4 be e1 6d e7 be
       -0.42534858 -0.36334687 -0.47677183 -0.45201018
000030 47 a8 2b 3f fa 3a 34 3f 4d d1 4c bd f6 95 5e be
       0.67053646 0.7040249 -0.050004292 -0.21736893
000040 3a c3 8f be 02 ba d8 be ac e6 7b 3f 95 85 9f 3e
       -0.28078634 -0.42329413 0.9839885 0.31156603
000050 27 ce 84 3e c1 d6 ad 3f 6d 5f 0b 3e 6f d9 b2 bc
       0.25938532 1.3581163 0.13610621 -0.021832196
000060 dc 3d f2 be e0 7e b1 be 69 f8 94 be ed dd 59 3f
       -0.4731282 -0.3466711 -0.29095772 0.85104257
000070 4b 93 2c 3f 57 19 06 3f 82 5d d0 be a4 cd e6 3d
       0.6741225 0.52382416 -0.4069634 0.112696916
000080 5b 9d 6f 3e 5b 62 99 3e c6 ab e6 be b6 1b ce bd
       0.2339987 0.29957852 -0.45052928 -0.10063879
000090 29 11 8f 3d 3e 79 fb 3e c1 1d 71 3e 9b 61 42 3f
       0.06985695 0.49115938 0.23546506 0.75930184
0000a0 a5 10 10 bc be 40 26 3f a4 ff 8a be 02 27 ef be
       -0.008793031 0.6494254 -0.27148163 -0.46709448
0000b0 4e 51 b9 be 81 e7 aa bc ee 0c 8d be 62 a0 c4 3d
       -0.36194843 -0.020862343 -0.27548927 0.09600903

fc1.bias f4 [16]
000000 ba a3 22 bd 5c d3 99 3f 7c 38 e9 be fc c4 ed bd
       -0.039706923 1.2017627 -0.45550907 -0.116098374
000010 18 f7 53 3f 80 44 b5 be b6 7a cb 3e 04 66 68 3f
       0.8279891 -0.35403824 0.3974206 0.90780663
000020 ee ad 85 be c3 3f 3f 3f 86 23 ff 3e 75 d1 43 be
       -0.2610926 0.7470667 0.4983179 -0.1912287
000030 f3 d2 e6 3e 72 f2 ed 3e 7b 37 80 be 79 35 34 be
       0.45082816 0.46474034 -0.25042328 -0.17598523

fc2.weight f4 [4, 16]
000000 b5 0c b2 3d 2b 62 4c bf 0c 3d 11 3e 72 3e 1b 3e
       0.0869383 -0.7983729 0.14183444 0.1516054
000010 b8 06 40 3f 9e 84 06 3e 99 4c 41 3e fd b1 2c 3f
       0.7501025 0.13136527 0.18876876 0.6745909
000020 6a 87 00 be 62 86 87 3e 0c 9e d9 bd 8f 5c 9a bd
       -0.12551656 0.26469713 -0.10625848 -0.075371854
000030 3f 51 ef bd 65 86 bb 3e 64 e3 98 3d 62 b2 ae bd
       -0.11685418 0.36625972 0.07465246 -0.085301176
000040 00 f5 cb 3c ce 10 58 3e 08 82 07 be d8 fc 02 be
       0.024897099 0.2110016 -0.13233197 -0.12791765
000050 d6 b5 5a be ba ef 31 3e 78 d6 5a be 74 5b 85 3d
       -0.21358427 0.17376605 -0.21370876 0.06511584
000060 d2 cb 65 be e0 cc 5d be 5c 71 23 be b4 dc bf 3d
       -0.22441033 -0.21660185 -0.15961212 0.09368268
000070 0c 83 c2 bd 40 00 28 be 5c ab a2 3d fa c0 69 3e
       -0.094976515 -0.16406345 0.079428405 0.22827521
000080 56 1a 99 3e 5e f4 57 bf 48 bc 59 bd de a7 29 be
       0.29902905 -0.8435725 -0.053158075 -0.16567943
000090 49 9c 47 3f ec a0 87 3d 9f 16 df 3e 5e 52 4f 3f
       0.7797285 0.0662249 0.43571946 0.8098506
0000a0 b0 26 37 3d ee 80 01 3e 20 2f 81 bd f5 dd b0 3c
       0.04471463 0.12646839 -0.063078165 0.021590212
0000b0 f4 a7 86 3e e8 1c 3f 3e 18 ce 46 be 3b 21 3d 3d
       0.26300013 0.1866337 -0.19414556 0.04617427
0000c0 05 19 47 3e 33 b7 43 bf 22 4e 05 be f8 d8 97 3d
       0.19443138 -0.76451415 -0.13018087 0.074144304
0000d0 5c 68 1e 3f 54 77 b5 3d e7 1d c2 3e 03 70 45 3f
       0.6187799 0.08860651 0.3791344 0.7712404
0000e0 74 ae 1b be 3d 42 c7 3e bf 37 38 3e 47 45 76 3e
       -0.15203267 0.38917723 0.17990015 0.24049865
0000f0 cc b8 55 3e b8 69 71 3e b8 59 4a 3d a4 f2 3f 3c
       0.20871276 0.23575485 0.04940197 0.011715565

fc2.bias f4 [4]
000000 cf b1 84 3d 38 b7 1a bd a7 ac 58 3d 17 3c d9 3e
       0.06479227 -0.037772387 0.05289903 0.42428657

out.weight f4 [1, 4]
000000 d0 0f 63 3f e0 26 a9 3d ff 06 4b 3f 48 86 a5 3e
       0.88696 0.08259368 0.7930755 0.3232901
