EX_DEEP_LEARNING/Models/weights_7.pth (torch, 3164 bytes, 5 tensors)

fc1.weight f4 [16, 3]
0.7980198 0.1925859 0.27706456 1.3455299 0.27679685 0.48030567 1.0323826 0.5319304
-0.04108559 -0.07602018 -0.059450507 -0.053464115 1.1021047 0.2817635 0.24043028 0.7444136
0.52756083 -0.035970442 1.0230118 -0.07209344 0.45280328 -0.8015946 1.054214 0.10212892
1.7860514 0.67217535 -0.05777556 0.4958626 0.65915453 0.3881015 1.4608043 0.013038175
0.36099494 0.47153065 0.82840514 0.2042092 -1.1202524 0.029964246 0.6643042 0.3425704
0.52967775 0.31857398 0.72168416 0.549794 0.5459243 1.8855196 0.4869692 -0.046198037
00000000: 074b 4c3f 3d35 453e 68db 8d3e 533a ac3f
00000010: 51b8 8d3e a0ea f53e 1d25 843f 972c 083f
00000020: 5d49 28bd 78b0 9bbd 6082 73bd 30fd 5abd
00000030: c411 8d3f 4e43 903e 5b33 763e e491 3e3f
00000040: 3a0e 073f be55 13bd 0df2 823f baa5 93bd
00000050: d5d5 e73e 4e35 4dbf 7cf0 863f f828 d13d
00000060: 559d e43f af13 2c3f 11a6 6cbd b4e1 fd3e
00000070: 5abe 283f 3db5 c63e a3fb ba3f 129e 553c
00000080: 54d4 b83e 776c f13e 5c12 543f 371c 513e
00000090: 6e64 8fbf 9477 f53c d70f 2a3f 6365 af3e
000000a0: f698 073f 211c a33e 4bc0 383f 4dbf 0c3f
000000b0: b2c1 0b3f b558 f13f 0754 f93e 273a 3dbd

fc1.bias f4 [16]
0.19271725 -0.10950701 0.22061515 0.21754056 0.09131439 -0.004890943 0.5811512 0.017554155
0.51589745 -0.13978215 0.57808375 0.8285736 0.111673914 -0.3172258 0.6166529 0.42395464
00000000: ac57 453e 3645 e0bd f0e8 613e f4c2 5e3e
00000010: 0a03 bb3d 3444 a0bb 53c6 143f bbcd 8f3c
00000020: db11 043f 0d23 0fbe 4cfd 133f 661d 543f
00000030: 4bb5 e43d 6c6b a2be f7dc 1d3f 9510 d93e

fc2.weight f4 [4, 16]
-0.2304545 0.17427525 -0.07808724 0.1827881 0.013083577 -0.10241526 0.0067748725 -0.028387725
-0.12253344 -0.24233148 -0.015437722 -0.05452186 -0.042166054 -0.19155133 0.009124249 0.22638169
-0.032432303 -0.26339212 -0.19541337 0.0034388602 -0.10727716 0.058726214 0.13507345 0.176318
0.049088933 0.09367253 -0.1270496 -0.11123271 0.03435005 -0.09288386 -0.085821554 0.036180817
-0.20159322 0.03663096 -0.07865295 -0.20399126 -0.24515551 -0.11833295 0.17505938 0.12444809
-0.08633685 0.13720241 -0.0046563447 -0.20164776 -0.113073915 -0.19346312 0.13159317 0.024290413
0.05381363 0.1733536 0.6080474 -0.22498462 0.47265834 0.7559264 0.36540073 -1.0280876
1.1736242 0.3394466 0.37171942 0.1391314 -0.23930182 -0.0014749377 0.15071264 1.1980175
00000000: 44fc 6bbe 3675 323e 34ec 9fbd ce2c 3b3e
00000010: 805c 563c 18bf d1bd c0ff dd3b 608d e8bc
00000020: d0f2 fabd be25 78be 80ee 7cbc 5052 5fbd
00000030: 50b6 2cbd 0826 44be e07d 153c 9ad0 673e
00000040: bcd7 04bd 55db 86be 711a 48be 805e 613b
00000050: 21b4 dbbd e68a 703d b250 0a3e b58c 343e
00000060: 7a11 493d 62d7 bf3d 4a19 02be facd e3bd
00000070: a3b2 0c3d e539 bebd 36c3 afbd 5632 143d
00000080: 746e 4ebe 580a 163d cc14 a1bd 16e3 50be
00000090: 0c0a 7bbe 8c58 f2bd c442 333e a4de fe3d
000000a0: 60d1 b0bd ca7e 0c3e 4094 98bb c07c 4ebe
000000b0: 4c93 e7bd 321b 46be 5cc0 063e b0fc c63c
000000c0: ae6b 5c3d 9b83 313e ffa8 1b3f 5e62 66be
000000d0: 4600 f23e 6484 413f ce15 bb3e 6098 83bf
000000e0: 5139 963f f2cb ad3e 0252 be3e 7678 0e3e
000000f0: 890b 75be b252 c1ba 6a54 1a3e a358 993f

fc2.bias f4 [4]
-0.1787116 -0.23833328 0.20433202 0.11422755
00000000: 2c00 37be a40d 74be 6a3c 513e 22f0 e93d

out.weight f4 [1, 4]
-0.17368782 0.091374524 -0.35024995 0.72398007
00000000: 38db 31be 9122 bb3d f653 b3be c256 393f
